xbd_pipeline_output/localization_model/final_model.pth (torch, 493109 bytes, 61 tensors)

pre_encoder.0.weight f4 [32, 3, 3, 3]
00000000: 8b93 a2bc bd2b 573a cbef 7cbc 652a 9a3a
00000010: 3c6b 303a 3974 a9bc e1c2 41bc df6d 913c
00000020: 560d 2d3b 1487 c2bd 5526 063c 6ca5 4eba
00000030: fe62 73bd f9d7 5439 afc9 abbc 794e 13bc
00000040: 37dd 92ba bc20 2fbc 27dc 05ba f3ed 403d
00000050: 2937 853b 82f7 8438 5f22 393c 8fea e4b9
00000060: dee1 b8b9 8aa9 a3b9 0ef8 0dbd e775 a4bd
00000070: 9500 053a 99dd 1eba e056 d83a 2444 653d
00000080: b4b1 fa3a 773b b73a 7795 38bd 8778 943c
00000090: 45e4 fd3a 1f3a 7d3a fdc7 4a3b 32d6 823b
000000a0: b970 193b cd46 0d3b f210 393d 70a0 0dbd
000000b0: ad41 4f3b f3e4 3bbb 0cfd 813a d05f a0bd
000000c0: b60d 3f3a 544f 083b 497f c7bb 2d5a adbd
000000d0: c4f0 6abc b25e 83b9 7f72 9abc e5ae 793c
000000e0: 61d9 a9bc 1495 b5bc ecba ebba 226a 943c
000000f0: 358d b13a 5a7e 0d3b 46aa 0cbb 2cbf 92bd
00000100: 23f7 ac3d a9c8 f03b f912 cb3b 638f 773b
00000110: 66db f63b 106a a83b 9725 fe3a 6221 7d3b
00000120: 6308 7a3a 1ae3 953d babe 353a 1881 29ba
00000130: 9c3e 37ba 0ff6 e63a f5ae 8c3a fca3 b2bb
00000140: 3407 a5bc 14d5 14be 6933 be3b f547 6a3a
00000150: 36d5 f43b 5fbf 0c3c 69e8 1b3c 7342 bf3b
00000160: 871d d13b 7fa9 ed3c db93 4abd aea6 44bd
00000170: 97dd e9bb 1c85 d3bb 76d1 223d e9b5 77bb
00000180: 3dea 6f3b 810f 873b a9af 67bb bffb 9b3d
00000190: ac4f cabb 422e d9ba 61e2 5cbb f1ce d6ba
000001a0: dab8 c63a c83a 7ebb 7e87 613d f0fb 963a
000001b0: bf75 60b9 4ed3 16bd 5da0 00bc 7a4c 273c
000001c0: bd99 b2bb b173 e6bb e6bf adbb 44f0 a2bc
000001d0: 708e a7bc 5546 32bd a619 54bc 8614 0a3d
000001e0: b76e acbb 37bb c4bb e022 d13d c853 14bc
000001f0: 4246 10bc 2877 12bd ab6b 9f3b 261a bdbb
00000200: 79ba 623d 104b 2fbb 53b8 a5bb 42a2 c8bb
00000210: 4ecd 93bb 0b09 b2bb 47b3 d1bc f34f 0bbc
00000220: d330 0bbc ff6b 9dbd 6424 bcbc 3932 e3bb
00000230: 8f8c 41bc 638f 47bb d8b3 aebb 41bb cdbb
00000240: 852f d4bb 9d50 c6bc 36ae 80bd 7097 57bb
00000250: c9e0 6b3d bee2 e7bb c929 7fbd cc83 99bb
00000260: 8a8a b5bb 5382 e3bb d7e6 ae3d 78c5 ffbb
00000270: 17cd a1bc e1c1 d5bb 0468 583e 70d8 7cbb
00000280: 89c8 4abd 063e d3bb 9f99 593d 2bbe 0bbd
00000290: 5e51 b53c 84d2 31bb 34e2 5a3d 2ce7 dc3c
000002a0: 845d 8dbb 27dd 95bc d59f 1abd 7467 fdbc
000002b0: b270 f7bb 7a67 a83d c400 bbbb 6bdf 94bb
000002c0: 136e acba 05ee a8bb 5718 97bb afc2 16bc
000002d0: cac4 65bb 0671 c93c db46 e0ba 7ec3 58bb
000002e0: 3b37 e6ba 0200 a0bc d0e4 68bb 386f 083b
000002f0: 9ea1 1bbb e49f 64bd a382 dcbc 39ff 98bb
00000300: b0c4 7cbb b495 cfbc d97c 9dbb 4195 b2bb
00000310: 8bce eabb 4ba5 a13c b3b5 d6bb 27fe dc3d
00000320: a3f1 00bc a8ff e6bb f62a 0bbc 1596 1bbc
00000330: 907a 22bc c6f3 203d cadb 25bc eb6b 87bd
00000340: d161 9bbb bb11 8c3a 7098 60bb fcc9 87bb
00000350: 6127 7bbd f3fe f53c 7355 b6bb 226e e5bb
00000360: c4db 69b8 ad60 49ba 83df 583d 0cc1 363c
00000370: 896e 193a 4a22 17bc 7487 c7b8 61c0 b2b9
00000380: 42b6 1a3a f269 823c 23a8 aa3d 2b32 7c3a
00000390: 2e13 93bb 2ef9 9ebb b9a6 fa3d 6b05 243e
000003a0: 081d 4a3d 02cf 27bd 16af 4abb 3722 293b
000003b0: caf9 2b3b 8824 96bc 9ba6 37bc d530 813c
000003c0: cca8 b439 f84a 64bd 5f5b 0abd 6161 473b
000003d0: a8ab 72ba 9c3a 5dbb b378 1e3b cd75 283d
000003e0: e500 5a3c 7c8e 8e3c 27bb 453b e0b6 dcbb
000003f0: 27dc 74bb 255b b3bb 3ec5 adbb 4f6d 083c
-0.019845745 0.00082081166 -0.0154380305 0.0011761902 0.00067298464 -0.020685302 -0.011826248 0.017752586
0.0026405654 -0.0949842 0.00818785 -0.0007882926 -0.05942058 0.00020298352 -0.020970194 -0.008990877
-0.0011204843 -0.010688957 -0.00051063526 0.047101926 0.0040654135 6.3403524e-05 0.011299699 -0.0004366231
-0.000352635 -0.000312161 -0.03466039 -0.080303006 0.0005073634 -0.00060602423 0.0016505383 0.055973187
0.0019126446 0.0013979514 -0.045064416 0.018123878 0.0019370398 0.0009659845 0.0030941956 0.003992819
0.0023413135 0.0021557093 0.045182176 -0.034576833 0.003162484 -0.00286704 0.0009917333 -0.07830775
0.0007288115 0.0020799236 -0.0060881716 -0.08464465 -0.01433963 -0.0002505682 -0.018853424 0.015239452
-0.020733537 -0.022165813 -0.0017984784 0.018117014 0.0013546111 0.0021590204 -0.0021463796 -0.071653694
0.08445575 0.0073481393 0.00619733 0.0037774674 0.0075334786 0.0051395968 0.0019389865 0.0038624634
0.0009537993 0.07318707 0.00069330225 -0.0006466075 -0.00069902255 0.0017620939 0.0010733294 -0.0054516774
-0.020145036 -0.14534408 0.0058044684 0.0008937114 0.007471706 0.008590548 0.00951586 0.005836779
0.0063816938 0.029011486 -0.049457412 -0.04801052 -0.0071370113 -0.006455077 0.03975054 -0.0037797636
0.0036608123 0.0041217213 -0.0035352504 0.07616376 -0.0061740484 -0.0016569572 -0.0033704268 -0.0016388578
0.0015161291 -0.003879236 0.055060856 0.0011519175 -0.00021406169 -0.03682261 -0.007850734 0.0102111045
-0.005450456 -0.0070328345 -0.005302417 -0.019889958 -0.020453662 -0.043524105 -0.012945568 0.03371098
-0.0052622217 -0.006003763 0.1021173 -0.009053178 -0.008805813 -0.035758168 0.00486513 -0.0057709394
0.055353615 -0.0026747622 -0.0050573735 -0.0061228583 -0.004510558 -0.005433207 -0.025598181 -0.008502948
-0.008495527 -0.07686614 -0.022966571 -0.0069334772 -0.011813297 -0.0030450455 -0.0053314976 -0.006278426
-0.0064753913 -0.024208361 -0.06283228 -0.003289666 0.05758742 -0.0070765903 -0.06229571 -0.004684901
-0.005540197 -0.006943026 0.08540123 -0.0078055225 -0.019751115 -0.0065233563 0.21133429 -0.0038581155
-0.04950765 -0.0064466028 0.05312502 -0.034116905 0.022133525 -0.0027133534 0.05343838 0.0269657
-0.0043141264 -0.01829393 -0.037750084 -0.03093312 -0.007551276 0.082228616 -0.0057068784 -0.004543235
-0.0013155363 -0.0051553273 -0.004611056 -0.00920169 -0.0035059922 0.024590027 -0.001711096 -0.0033075507
-0.0017564067 -0.019531254 -0.0035536774 0.0020818245 -0.0023747454 -0.055816546 -0.026917761 -0.004669097
-0.0038569383 -0.025339939 -0.0048061428 -0.0054499214 -0.007165735 0.019732138 -0.006552422 0.10790663
-0.007870111 -0.0070495196 -0.008494129 -0.009496232 -0.0099169165 0.03929498 -0.010123203 -0.066123806
-0.0047418852 0.0010686436 -0.0034270547 -0.0041439515 -0.06131685 0.030028796 -0.0055643856 -0.0070016542
-5.57562e-05 -0.00076819473 0.052947532 0.011154424 0.0005852958 -0.009224484 -9.5142896e-05 -0.0003409414
0.00059017923 0.01591966 0.08332851 0.0009620513 -0.0044883704 -0.004851482 0.12238831 0.16017692
0.049344093 -0.040968902 -0.0030927113 0.0025807747 0.0026241415 -0.018327966 -0.011209155 0.015770355
0.0003445804 -0.05573556 -0.033778545 0.0030423033 -0.0009257146 -0.0033756858 0.002418083 0.04112797
0.013305877 0.017401926 0.0030171366 -0.0067356676 -0.0037362666 -0.0054735118 -0.005303054 0.008326842

pre_encoder.0.bias f4 [32]
00000000: d600 37b6 adf5 b735 4451 6b35 4785 2db6
00000010: f8d9 6d36 7cd8 0236 3e20 a8b5 e2b1 1336
00000020: ab57 d4b5 6769 5037 5307 a0b5 a9ec 13b5
00000030: d8d6 a7b5 6ed6 b3b5 5729 a635 6987 0fb6
00000040: 10c5 59b5 6451 0cb6 841c 0fb7 69e8 8cb5
00000050: fc3a 4cb5 e25b 25b7 e594 eeb5 34bc 7b35
00000060: 0572 ce36 c990 0ab6 858f b1b5 50ad b7b6
00000070: 058d 5537 3ff1 9736 c426 53b6 0b79 39b7
-2.7269612e-06 1.3706064e-06 8.766258e-07 -2.5856586e-06 3.5442627e-06 1.949752e-06 -1.2526359e-06 2.2008248e-06
-1.5820746e-06 1.2422307e-05 -1.1923061e-06 -5.5106153e-07 -1.2504997e-06 -1.3398947e-06 1.2379995e-06 -2.138748e-06
-8.1125563e-07 -2.0909001e-06 -8.5301035e-06 -1.0498453e-06 -7.6081756e-07 -9.8561595e-06 -1.7775716e-06 9.377866e-07
6.152552e-06 -2.0647879e-06 -1.3229297e-06 -5.4740012e-06 1.2728623e-05 4.5282354e-06 -3.1464015e-06 -1.1055042e-05

pre_encoder.1.weight f4 [32]
00000000: edd5 663f 09e8 663f 8ee2 663f 82e1 663f
00000010: 1de8 663f 03df 663f dada 663f f1e0 663f
00000020: 87d6 663f fcdd 663f 22e4 663f 46de 663f
00000030: 72de 663f 6ee2 663f 93e1 663f bed9 663f
00000040: 4cde 663f cbe0 663f 2de4 663f ade2 663f
00000050: eae1 663f a2e2 663f e3d0 663f 57e0 663f
00000060: 5cdf 663f 20db 663f c0dc 663f 48e9 663f
00000070: 28db 663f 47da 663f 48df 663f 00dc 663f
0.90170175 0.9019781 0.90189445 0.9018785 0.90197927 0.9018404 0.9017769 0.90186983
0.9017109 0.9018247 0.90191853 0.9018291 0.90183175 0.90189254 0.9018795 0.90176
0.9018295 0.90186757 0.9019192 0.9018963 0.9018847 0.90189564 0.90162486 0.90186065
0.9018457 0.9017811 0.9018059 0.9019971 0.90178156 0.90176815 0.9018445 0.90179443

pre_encoder.1.bias f4 [32]
00000000: 9ee8 2bba 64fe e0b9 91f1 d9b7 f4c2 9fb9
00000010: d6a1 53ba a399 3fb8 b949 4ab9 0641 f1b8
00000020: 268d 8aba 193f 5c3a 9980 713a dcad 8cb9
00000030: 0405 d4b6 c4b0 a839 afb9 89b7 69bc 60ba
00000040: eef0 813a 2666 9db9 7898 2939 900e f5b9
00000050: 5029 98ba e3c0 273a 5a89 04bb 98f2 86b9
00000060: fbef f536 5003 afba 51d1 9839 1150 0b39
00000070: a1c3 0638 f71f dfba 9ce1 a839 00ee b73a
-0.0006557795 -0.00042914145 -2.5980904e-05 -0.00030472095 -0.00080731267 -4.5681034e-05 -0.00019291685 -0.00011503887
-0.001057063 0.0008401736 0.0009212583 -0.00026832416 -6.3186762e-06 0.00032175158 -1.6418138e-05 -0.0008572997
0.0009913722 -0.0003002148 0.00016173895 -0.0004674089 -0.0011608992 0.0006399287 -0.002022347 -0.00025739218
7.3295064e-06 -0.0013352428 0.00029147652 0.000132859 3.2130283e-05 -0.0017023076 0.0003221155 0.0014032722

pre_encoder.1.running_mean f4 [32]
00000000: 6c56 da3d ee03 173e f7f2 34bd 84d7 71bb
00000010: d006 593d 599e a13c a128 23bd 3921 f63d
00000020: ae5d 19be cba2 efbc d242 283e cd5a 0a3e
00000030: f049 e03d 5dd1 a1bd e72e 59bd 225c 70bd
00000040: 9cfb 3f3d 041d 3fbe d184 a63d 983f 2a3e
00000050: cc42 92be e736 943b 4424 8b3d 1d26 de3d
00000060: 0258 5abc 92c5 11be afa1 eebd ce93 453d
00000070: b78f 5eba ec6d f63b 32f6 833d 8110 5abd
0.10661015 0.14747593 -0.04417702 -0.003690214 0.052985013 0.019728826 -0.03983367 0.120180555
-0.14977142 -0.02925243 0.1643174 0.135112 0.109516025 -0.07901261 -0.053023245 -0.058681615
0.046870813 -0.18663412 0.081308015 0.16625822 -0.28566587 0.0045231464 0.067940265 0.10847113
-0.013326647 -0.14235523 -0.116519324 0.04823666 -0.0008490043 0.007520428 0.064434424 -0.053238396

pre_encoder.1.running_var f4 [32]
00000000: d52b 223b 0f81 ba3a 0c98 ae39 be85 bb39
00000010: b8a2 f739 2d1b 653a c122 a039 19bb 7d3a
00000020: 72ad cd3b 88d7 0b39 40d0 1e3b 617f 083b
00000030: 1901 6f3a be90 773a 5f69 5139 5c9b 9e39
00000040: a366 cd39 4044 5c3b 0869 e13a a540 213b
00000050: caa3 e13b 850e 3939 89f5 fe39 f9f4 553a
00000060: 0c9a 3d39 059b ff3a ccd1 873a 8398 423a
00000070: f5e8 6139 7e96 9038 0493 fa39 a212 3b3a
0.0024745364 0.0014229136 0.0003330115 0.00035767065 0.00047232746 0.0008739706 0.00030543472 0.0009679064
0.00627678 0.00013336365 0.0024233013 0.0020827877 0.000911729 0.00094438705 0.00019971047 0.0003025186
0.00039177117 0.0033610016 0.001719744 0.0024605182 0.0068859803 0.00017648384 0.00048629593 0.0008161809
0.00018081832 0.0019501155 0.0010362207 0.0007423239 0.00021544455 6.8944864e-05 0.0004779325 0.00071362604

pre_encoder.3.weight f4 [32, 32, 3, 3]
00000000: 70f1 233b d3cb 8dbc ae00 3cbc 13ef 73bb
00000010: 4775 48ba d8b7 d1b9 8831 1cba 987c cbbc
00000020: af53 0f3c d4a6 803c 9df8 8bba 6617 73bc
00000030: 7868 7aba f6af 36ba ab13 d2bd e8ad 443d
00000040: dca8 f3bb 2bed b43c 53b7 f13c c16e 133b
00000050: d5ea b73a 57c7 203d 7379 c53a 957b 0b3b
00000060: 3671 94bb 79bd 423a ece6 973a ffb6 6c3a
00000070: b87c 4f3a 7112 183a 9d0e 2e3a 901a 8eb9
00000080: a296 8b3b 5105 ac3c 795b 853a 4b7a 08bc
00000090: 7acf 9fb7 37ee fb39 43c6 e4b7 a361 7eb8
000000a0: 06d4 993a ac0c 0dbd da24 68bc c986 52b9
000000b0: 09f6 c6b9 4e62 44bd 417c 2c39 0b6f 703d
000000c0: 055e e3bc 631d 243a ed37 4e3a 92fb 7dbb
000000d0: 2a69 bf3d 2954 a639 74b1 aebc 0fb7 d63a
000000e0: e456 4a3b ffd6 cb3a 8147 0d3c cf69 653a
000000f0: 6aab bd3a 9c40 b2bc 72be 013b 5011 02ba
00000100: 0d53 22b9 495c abbd 41b7 97ba efa3 71ba
00000110: 647e 91ba ae05 92ba 1a13 93ba e0e2 e5b9
00000120: ac4e 7c3a 6a19 87bb ba10 b43a d737 9f3a
00000130: b3b6 f4bb 7788 8a3a 7ca5 e6bd 5675 aebc
00000140: b406 a13a 600f 0ebd 45bf 8cbd 8a52 a53a
00000150: 0379 d23a 4b3c 3f3c 633b ae3a ef4f ac3c
00000160: ca13 113c 31da 03bd b865 c93c 1967 393c
00000170: 1465 91ba ad29 81ba d570 763d f6a4 943c
00000180: 54eb 9cba 0682 8cba 425c f43c 821d d93d
00000190: 2bee 6b3d 3d11 0a3a 9150 24ba 32c6 5ebc
000001a0: e4ed 99b9 e170 3dbc 6233 b9b9 8d92 86bc
000001b0: 6167 103d 7089 b1ba 05c1 a13b b446 58ba
000001c0: 0fbb 52ba 94d8 b0bc e750 92bd cd7e 1b3d
000001d0: 8132 0bba 21bb 31bb a5bc a43b e868 ce3a
000001e0: 0e29 39bd 205b 00bd 6c62 f53a 927a a23a
000001f0: 47a9 353b 7460 a23c 9ab6 a33d 6cb9 d639
00000200: 2068 0e3b a86e 853b c7d0 b43a fb07 02bd
00000210: 9658 1a3b 00b2 2b3a 4232 ba3d 2114 2e3b
00000220: 2f95 433d bad6 e13a f21e 57bd 567d 0b3b
00000230: 460e 5a3a e2ca 68bc 7bab d2bc 4645 ae3a
00000240: 5274 0c3e 72ff 93b9 1e1e 87ba 0727 a3b9
00000250: 2200 42ba b3b9 a03c 4e60 52b9 89ab d3b9
00000260: 734e eab9 ce8d 993a 458e fb3b be3f 283d
00000270: df5b 65bc 4c2f eb3a af86 dc3a 30d8 4b3a
00000280: 58c8 d83a 6ea5 ac3c 23f9 173c 5cbb efbd
00000290: c07e 493a 5cf9 06bd 03f2 163a f2c9 75b9
000002a0: f2e9 5439 00f3 833a a88d e139 81ab 69ba
000002b0: e3cb 50ba da78 07bd 96e3 1e3e eb77 db38
000002c0: 9676 aa3b 3107 84ba e2b3 84ba 6afc 21ba
000002d0: 529d d83a 6315 aa3c 06a7 97bd e317 013b
000002e0: a776 abba 838a 9d3a 51b4 cabc dbea 9c3b
000002f0: cecf f43a 4262 12b9 8029 7e3a be45 3a3b
00000300: a4b3 2e3a ea63 fb39 2afe 243b 4315 4039
00000310: c59f 243a 5e21 803c 1488 87bb 4a60 cc3b
00000320: 26a2 7ab8 33f2 8d3c c080 063d 3015 7e3d
00000330: 6b35 da3d e135 1b3d c2ce 81bc b952 54ba
00000340: 4683 7f37 014a 433a b362 72b9 3044 203b
00000350: 1f13 473a 825d 30b9 7eac e5bb a0a3 69b9
00000360: e0de bd3a 5d2f a83a 3df8 273b 316c a63a
00000370: 28c8 c43a 4c5a b53a a470 aa3d a664 023b
00000380: 90e3 c63a 43cb 53bc c546 0a3c a7bf b9bd
00000390: 2350 033b 3e12 e139 ad58 ee3a a22d 1d3b
000003a0: 6c91 4f3c a04c 36bc 14be c83b 6c72 e53a
000003b0: 76e2 b3bc 4f1a da3d 82c1 e73a 1e0e 863a
000003c0: 99af 2cbc c8ca ff3a 08b9 0e3b a278 9b39
000003d0: d526 dc37 9869 bab9 82d2 5b39 a29e 22ba
000003e0: ecd0 f13c 4c21 8abd 8b43 04ba 3bdb 14bb
000003f0: 99eb ca3b d567 8d3a 01da 583a f9ce f93a
0.0025015734 -0.017309105 -0.011474771 -0.0037221357 -0.000764687 -0.0004000056 -0.00059583085 -0.024839684
0.008747979 0.01570455 -0.0010678951 -0.014837122 -0.000955231 -0.0006968969 -0.102576576 0.048017412
-0.007435901 0.022085747 0.029506361 0.0022496434 0.0014031777 0.039252605 0.0015066102 0.0021283377
-0.0045300974 0.00074287463 0.0011589206 0.0009029954 0.0007915008 0.0005801088 0.0006639751 -0.0002710414
0.0042599 0.020998629 0.0010174356 -0.008329938 -1.905089e-05 0.00048051935 -2.727204e-05 -6.064925e-05
0.0011736162 -0.034435913 -0.014168942 -0.00020077372 -0.00037948813 -0.047945313 0.00016449486 0.05869965
-0.027754793 0.00062604825 0.000786661 -0.0038754684 0.0934623 0.00031724692 -0.02132485 0.001638146
0.0030874545 0.0015551745 0.008623005 0.00087514234 0.0014470641 -0.021759324 0.0019797352 -0.0004961686
-0.00015480463 -0.08367211 -0.0011575 -0.00092178484 -0.0011100289 -0.0011140609 -0.0011220903 -0.0004384732
0.000962476 -0.0041229026 0.0013737895 0.0012147379 -0.0074680685 0.0010569234 -0.112620324 -0.021296185
0.0012285323 -0.03468263 -0.06872419 0.00126131 0.0016057793 0.01167209 0.0013292845 0.021034209
0.008854816 -0.032190505 0.024584636 0.011316084 -0.0011092746 -0.0009854339 0.0601662 0.018145066
-0.0011971989 -0.0010719902 0.029829148 0.10601331 0.05760018 0.0005266851 -0.0006268109 -0.013597058
-0.00029359676 -0.011562557 -0.00035324233 -0.016427303 0.03525484 -0.0013544988 0.00493634 -0.00082502817
-0.0008038738 -0.021587647 -0.07144337 0.037962724 -0.0005309955 -0.0027119594 0.005027371 0.0015747817
-0.04520517 -0.031336904 0.0018721349 0.0012396148 0.0027719305 0.019821383 0.07993813 0.0004095541
0.0021729544 0.004072029 0.0013795131 -0.031745892 0.0023551336 0.00065496564 0.09091617 0.002656229
0.047749694 0.0017230131 -0.052519746 0.0021284423 0.0008318167 -0.014208527 -0.025716534 0.0013295792
0.13716248 -0.00028228346 -0.0010308658 -0.0003111886 -0.00074005325 0.019619798 -0.00020063037 -0.0004037286
-0.00044690407 0.0011715235 0.007676872 0.041076414 -0.013998955 0.0017943173 0.0016824807 0.000777605
0.0016539199 0.021074977 0.009275707 -0.11705658 0.0007686429 -0.03295265 0.00057581085 -0.00023440251
0.00020305047 0.0010066926 0.00043020886 -0.00089138007 -0.0007964952 -0.033074237 0.15516505 0.0001046507
0.005202125 -0.0010072944 -0.001012441 -0.0006179275 0.0016526377 0.020762151 -0.07404904 0.0019698075
-0.0013081626 0.0012019429 -0.024744185 0.004788739 0.0018677653 -0.00013960249 0.0009695515 0.0028422917
0.0006664342 0.00047948892 0.0025175908 0.00018318467 0.0006279911 0.01564091 -0.004136095 0.0062370645
-5.9755657e-05 0.017327404 0.03283763 0.062031925 0.1065472 0.03789318 -0.01584566 -0.0008099485
1.5229749e-05 0.0007449687 -0.00023115687 0.0024454705 0.0007594097 -0.00016819502 -0.007009088 -0.00022281567
0.0014485978 0.0012831498 0.002563014 0.0012697038 0.0015013264 0.0013836115 0.08322266 0.0019896417
0.001517402 -0.012926879 0.008439724 -0.09069758 0.002003678 0.00042928936 0.0018184386 0.0023983498
0.012668949 -0.011126667 0.0061261747 0.0017505414 -0.02195857 0.10649549 0.0017681571 0.0010227596
-0.010539913 0.001951539 0.0021777768 0.00029653782 2.6244126e-05 -0.00035555358 0.00020963888 -0.00062034477
0.029518567 -0.06744632 -0.0005045465 -0.002271368 0.006192636 0.0010788391 0.0008272231 0.0019058875

pre_encoder.3.bias f4 [32]
00000000: 1a11 16b2 0cb4 c4b4 f6fd 24b4 3f18 eeb3
00000010: bc0c 8134 63cd fa33 b578 dc34 7ef7 96b3
00000020: 937e 09b5 94a2 d834 1cb8 e634 6505 9cb4
00000030: e24e 2ab3 99fe 24b4 ff22 6e34 8082 5233
00000040: d965 66b4 0608 c631 3ee5 10b5 1d08 5734
00000050: 73df 1834 7594 8834 0483 55b4 463f e0b4
00000060: 3a3c 3233 3cff 94b3 2d27 dc33 1aa3 2332
00000070: 731a 8b33 aa86 e833 3757 f833 e09b 4234
-8.735038e-09 -3.6638846e-07 -1.536608e-07 -1.1087149e-07 2.4037388e-07 1.1678892e-07 4.106602e-07 -7.029938e-08
-5.1220667e-07 4.0351426e-07 4.2974796e-07 -2.906119e-07 -3.9652953e-08 -1.5366312e-07 2.2178209e-07 4.9013124e-08
-2.1457471e-07 5.7634706e-09 -5.397777e-07 2.0026387e-07 1.4237393e-07 2.543999e-07 -1.9884834e-07 -4.176929e-07
4.149863e-08 -6.938214e-08 1.0251674e-07 9.524934e-09 6.477503e-08 1.0827837e-07 1.1564264e-07 1.8124365e-07

pre_encoder.4.weight f4 [32]
00000000: 84e4 663f bcdf 663f 95e0 663f 36e0 663f
00000010: 8ee3 663f d0df 663f bfde 663f d3dd 663f
00000020: 91dd 663f 72e0 663f 04dd 663f 3cdc 663f
00000030: b7dd 663f 2fe7 663f 86de 663f 0edc 663f
00000040: bcde 663f cae0 663f 86dc 663f b8e0 663f
00000050: 01dd 663f 8fde 663f b9dc 663f aae4 663f
00000060: 1edd 663f 74df 663f d7de 663f f2e0 663f
00000070: b8d9 663f 54da 663f f0e2 663f f5e0 663f
0.9019244 0.9018514 0.90186435 0.9018587 0.9019097 0.9018526 0.90183634 0.90182227
0.90181834 0.90186226 0.90180993 0.901798 0.9018206 0.9019651 0.90183294 0.90179527
0.90183616 0.9018675 0.9018024 0.90186644 0.90180975 0.9018335 0.90180546 0.90192664
0.9018115 0.9018471 0.90183777 0.9018699 0.9017596 0.9017689 0.9019003 0.9018701

pre_encoder.4.bias f4 [32]
00000000: dbc4 4eba 627d 05b9 efbe bbb9 c1f5 2ab9
00000010: 469b e538 44d2 b3b9 6e07 aa38 3383 9839
00000020: 6ff8 93b8 27fa 493a 9fdc 8439 bda3 7db9
00000030: 14cc b836 b0de fcb9 cef0 33b9 93ec 8ab9
00000040: d0bd a5b9 3e7d c539 5fbf f2b9 62dc 403a
00000050: 1694 1d39 c66b 85b8 3385 b7b9 7bfc 8cb8
00000060: 7a15 7839 13be 6a38 ac49 c139 4adb 2539
00000070: 3996 193a 821d c337 7c80 9039 e92a af37
-0.000788761 -0.00012730577 -0.00035809676 -0.00016304014 0.00010948493 -0.000342982 8.1076156e-05 0.0002908945
-7.0557806e-05 0.0007704817 0.00025341377 -0.00024188957 5.507385e-06 -0.000482311 -0.00017160477 -0.00026497673
-0.00031612674 0.0003766808 -0.0004630042 0.00073570583 0.00015027853 -6.3620086e-05 -0.0003500372 -6.7227484e-05
0.00023659124 5.5966968e-05 0.00036866718 0.00015817318 0.0005858872 2.3259552e-05 0.0002756155 2.0881607e-05

pre_encoder.4.running_mean f4 [32]
00000000: af41 0d3e fdbb 3a3e 023f 513e be79 0b3e
00000010: fd35 9ebe 83e9 babd 3d94 0fbe b804 56bc
00000020: 291c a6bd 21d0 2f3e b28c 983e 8027 023e
00000030: 93d2 20be f374 bc3e ccb4 40be 0255 af3d
00000040: 4b55 373e fe6a 123d 1bc1 413e 85a3 a43d
00000050: 140f 26bc 0db0 adbd 019e 02be 6c7a f53b
00000060: c7d0 44bb 2785 dfbd 1d6f d33d 89af 9b3d
00000070: a7ae 99be 6bcd 313c 8f54 8b3d d6c1 77be
0.13794588 0.18235774 0.20434192 0.1362066 -0.30900565 -0.0912657 -0.14021392 -0.0130626485
-0.0811084 0.17169239 0.29794842 0.1271038 -0.15705328 0.36807975 -0.18818969 0.08561136
0.1790363 0.035746567 0.1892132 0.080390014 -0.010135431 -0.08480845 -0.12755586 0.0074914005
-0.0030031668 -0.10914069 0.103239276 0.0760184 -0.30016062 0.010852198 0.06803238 -0.24195036

pre_encoder.4.running_var f4 [32]
00000000: 37f7 a93d 2be0 893d 3b63 243e f693 883d
00000010: ca51 cd3d b06b 553d cebb 173d 2720 583e
00000020: e4c3 b63c fc9a 113d 0599 c93d 69d2 a23d
00000030: 597a a73d fa44 dd3d 2d83 ac3d 277b df3c
00000040: 304b 313d 6640 9a3e 7ebb 543d 1e1a 383d
00000050: 3de4 733d 76d3 dd3d e0d5 053e 885a 1f3d
00000060: fda8 783d e565 333d d964 883e 5d6f d93d
00000070: 44e0 f33d 53d4 673e 509a 8a3e 619c 833d
0.082991056 0.0673221 0.16053478 0.06668846 0.10025366 0.052104652 0.03704434 0.21106015
0.022310205 0.035548195 0.09843639 0.07950289 0.08177633 0.10804172 0.08423457 0.027280403
0.043284595 0.30127257 0.05193662 0.044946782 0.059543837 0.108313486 0.13069868 0.038904697
0.060708035 0.043798346 0.2663944 0.10616944 0.1190801 0.22639589 0.27070856 0.06426311

post_encoder.0.weight f4 [32, 3, 3, 3]
00000000: f337 1e3d 9b7d cc3b 91a8 ed3b 7976 553c
00000010: 2d1d aa3b e256 283c 16f2 8dba 4dc4 5abd
00000020: da5f 5a3b bb54 363c e635 b0ba aceb 38ba
00000030: 1829 b5bb 4524 d93b 6ada debc 4352 4dbb
00000040: 0888 3cbb a337 9fbc c4a5 c03c 09bc 6ebd
00000050: 2ede 7eba f9e2 94bb 893e 93bb 055a 54ba
00000060: 8441 03bd c22d 85ba 3047 603d 45f1 a53a
00000070: 22c8 77bd 63d1 0dbd 4ed2 62bb 44ab 0f3a
00000080: 2389 af38 b888 573a cd0d 133a 7020 a1bd
00000090: c4ac 4fba bb0b bb3a 5686 50ba f4d4 803b
000000a0: 1172 783c 0f0a 853c 3a10 97bc 0e15 a8bd
000000b0: 7c31 0fba 6a39 c93d dfad 83bb 0a93 a4ba
000000c0: 4e28 d33b ca06 2cb9 02d1 24ba eaa6 8cbc
000000d0: 0e75 b439 6644 abbc acdd fcbc 44bd 0b3a
000000e0: 3c04 33bc 9996 feb8 5234 8ebb 9ab9 8d3a
000000f0: d1f8 b7bc 95d1 25b9 a570 d2b9 4fb6 b737
00000100: 4161 4c3a 46f2 9abd a2bc a7bd fc43 6bba
00000110: 4ad1 d73c 1a8a a0ba 01dd 88b9 4b88 4aba
00000120: bf60 9eb9 7cc5 b0bb b885 8dbd ff7f 60bc
00000130: 0a79 48b9 de4d 07ba b7c6 73bc 64af 52bc
00000140: bb75 ccbc f359 99ba e259 3ebc 50c4 e9ba
00000150: c79a 30ba c79f 09bd 9c4f 51ba c131 58bd
00000160: cf5a 5cba 2b5c c9ba fc46 893a 4e15 863a
00000170: ab00 efbc d19f 113c 27c4 1fbd c9a0 b23a
00000180: 7fa1 523a 46f9 633a b184 aa3c 61c3 b63b
00000190: f279 03bb 2692 0bba eef7 c336 4962 84bd
000001a0: 3df5 3239 0d3d 33b9 9478 a9b9 c82d 80ba
000001b0: a2ab c5bb adb3 47bc a9ce 073e 431c 77bd
000001c0: 0459 2dbb 007a e3bb 6b3a b7bd 63c3 c3bb
000001d0: a9a0 9bbb 88b2 043e 2ca0 88bb 927a eabb
000001e0: 02e8 033c 19f6 ccbd 9bc6 a13d ebd4 5e3d
000001f0: 66be 54ba e1e3 aa3b 7c65 b2bc 0f21 a8bb
00000200: af6f b63b 661f 32bb db80 b8bd 7cea ddba
00000210: 65cf 70bb 3c34 62bb 9496 d4ba 3549 04bc
00000220: 3783 33bc c450 b8bb 0234 e5bb d015 33bc
00000230: 6266 b5bb 6fbb 12bc 3b85 4dbb d678 acbb
00000240: 5c3b 88bb e789 d6ba 4692 75bb 7519 783d
00000250: c08e b7bb ca48 3fbb 9d34 bebb 8139 46bc
00000260: 24d1 53bb a337 9cbb a806 4a3d 55b1 ffbb
00000270: 1a3e d6bb 94fa 75bd 2bb5 923d fcad 00bc
00000280: b445 7abb 2fa3 2abc 7664 d73b f6a9 693d
00000290: b16b ed3b 0f36 7d3c 319a ac3b 925a cd3b
000002a0: 84e4 9e3b 3cf7 1e3d 1288 b83a cd1f c03b
000002b0: 01f5 1b3c e26c 76bd 7703 df3b 7c73 e23b
000002c0: 5670 fc3b 5df9 a13b 4f0a 86bd a445 803b
000002d0: e8ad cabb 94fc 12bc f418 85bb 7afe b8bd
000002e0: 86f9 b73d cbdc c2bc 0ec3 9dbb 28f6 43bc
000002f0: 79dc c73c be89 943b 6159 963a 1055 a9bb
00000300: c841 8d3d ae29 1d3d 4b4a 3f3a 8942 6e3b
00000310: 632c 9abd a07d bc3c 7ed3 64bd 3ea0 ddbb
00000320: 7033 95bd 0c16 993b 6b0b 0dbc f4ac 9abb
00000330: 24fe 26bc 2ef6 aaba 7edd 9b3a 063c 963b
00000340: f156 ce3d 050d 563b 8538 9d3a 3fbc 2fbc
00000350: def8 753c 57fb a03b f964 923b ead0 dc3b
00000360: 31ef 5738 74a0 15be 7bab 123a d306 c0b9
00000370: 268e dabc d299 a6bd 2308 4fba aa24 9d39
00000380: 534f 6e3b bb9f 703c 517f f438 e5b3 a43d
00000390: 4a6f c03a 991c 81ba e597 123b c8b7 bf3a
000003a0: 2b5d 493a b397 213c d166 91bc 17d6 143d
000003b0: b66b 86bc c5de 4938 7a91 0f3a d1d1 493a
000003c0: c316 fcb7 fcca 2d3a 2d74 aa3a c247 16bd
000003d0: 23c3 983c 1b6c 06bb 2609 7bbb 4fd8 013c
000003e0: 5643 c2ba 9907 10bc ff14 12bc 3a6e 10bc
000003f0: 9b88 01bd 4d90 653a 074b 9338 cf56 a43b
0.038627576 0.0062405593 0.0072527607 0.013028734 0.0051914663 0.010274621 -0.0010829594 -0.053409863
0.0033321292 0.0111286 -0.0013443797 -0.0007054161 -0.0055285804 0.006626638 -0.027203757 -0.003132955
-0.0028767604 -0.01943571 0.023516543 -0.058284793 -0.00097224384 -0.004543659 -0.0044935388 -0.0008100572
-0.032044902 -0.0010160732 0.05475539 0.0012660405 -0.060493596 -0.034623515 -0.0034610215 0.00054805377
8.370194e-05 0.0008221972 0.00056096615 -0.07867515 -0.00079221674 0.0014270464 -0.0007954588 0.003931636
0.015163914 0.016240148 -0.018440355 -0.08207141 -0.0005462391 0.09825404 -0.00401853 -0.0012556028
0.0064440137 -0.00016405727 -0.0006287248 -0.017169435 0.00034419488 -0.020906638 -0.03086742 0.0005330632
-0.0109263025 -0.00012139715 -0.004339733 0.001081276 -0.022457512 -0.00015813702 -0.00040138248 2.1900194e-05
0.00077964744 -0.07565741 -0.08190276 -0.0008974669 0.026344914 -0.0012248189 -0.00026104602 -0.0007725998
-0.0003020819 -0.0053946357 -0.069102705 -0.013702392 -0.00019118577 -0.00051614444 -0.01487892 -0.012859199
-0.024958482 -0.0011699781 -0.011618109 -0.0017834995 -0.0006736931 -0.03359964 -0.000798458 -0.052781824
-0.00084058655 -0.0015362551 0.0010473426 0.0010229738 -0.029175123 0.008888201 -0.039005425 0.001362824
0.0008034929 0.00086965074 0.020815225 0.00557749 -0.0020061699 -0.0005324207 5.8403157e-06 -0.06464059
0.00017066761 -0.00017093513 -0.0003232403 -0.0009779269 -0.006032423 -0.012188834 0.13262428 -0.060329687
-0.0026450763 -0.006942034 -0.08946689 -0.0059742196 -0.004749377 0.1295873 -0.0041694846 -0.007155725
0.00805092 -0.10007877 0.07899209 0.054402273 -0.000811553 0.0052151536 -0.021776907 -0.005130894
0.005567513 -0.002717936 -0.09008952 -0.0016930844 -0.003674471 -0.0034515997 -0.0016219192 -0.008074095
-0.010956577 -0.0056248624 -0.006994725 -0.0109304935 -0.0055358866 -0.00895582 -0.003135993 -0.005263428
-0.004157467 -0.0016368002 -0.003747122 0.060571153 -0.005601734 -0.0029187673 -0.005804612 -0.012098671
-0.0032320702 -0.0047673746 0.049322754 -0.007803122 -0.006538165 -0.060053423 0.07163461 -0.007853981
-0.003818852 -0.010414883 0.006573255 0.057046853 0.007245504 0.015454783 0.0052674045 0.0062669003
0.0048490185 0.03881 0.0014078638 0.005863166 0.009518863 -0.060162432 0.006805833 0.0069107395
0.007703821 0.0049430565 -0.06544935 0.003914552 -0.006185282 -0.008971352 -0.0040618125 -0.090329126
0.0898314 -0.023786923 -0.004814512 -0.011960544 0.024397122 0.0045330217 0.0011470729 -0.005167611
0.068973124 0.038369827 0.00072971423 0.0036355576 -0.07527997 0.023009121 -0.055865757 -0.006763487
-0.072852015 0.0046718176 -0.008608679 -0.0047203247 -0.010192428 -0.0013043338 0.0011891571 0.004584792
0.100751765 0.003266157 0.0011994994 -0.010726034 0.015012948 0.0049127745 0.0044676033 0.0067387717
5.148276e-05 -0.1461199 0.00055950106 -0.00036626178 -0.02667911 -0.08134808 -0.0007897636 0.0002997269
0.00363632 0.01468652 0.00011658541 0.08042125 0.0014681604 -0.0009850442 0.0022368368 0.0014626915
0.00076814246 0.009862828 -0.017749222 0.036336984 -0.016408782 4.8129605e-05 0.0005476695 0.00076988066
-3.005134e-05 0.00066296733 0.0013004594 -0.036689527 0.018647736 -0.0020511213 -0.0038305013 0.007925107
-0.0014821093 -0.008790874 -0.008916139 -0.008815343 -0.031624418 0.0008757159 7.023481e-05 0.005015231

post_encoder.0.bias f4 [32]
00000000: 2020 1837 234a 4b35 10f4 cd35 4fdb aab5
00000010: b3f3 93b4 380a 20b6 235a 7736 dcef 9236
00000020: 39d5 ff35 bd72 53b4 ff77 2435 7eed 8236
00000030: aba7 7bb5 4450 61b6 8a5a e135 1da8 a6b6
00000040: 3ff7 f4b3 03e1 eab5 69fa 03b6 31ee c7b5
00000050: f183 11b6 6e03 fa34 18c0 a735 4f47 fbb5
00000060: f381 a3b5 1e0a ceb5 c3d0 8a35 6686 a4b5
00000070: b3da beb5 6c73 a633 2e40 c735 8dff 2a37
9.067386e-06 7.5731276e-07 1.5344722e-06 -1.2729814e-06 -2.7558198e-07 -2.3847806e-06 3.6858335e-06 4.3790624e-06
1.9061036e-06 -1.9692648e-07 6.126938e-07 3.9019496e-06 -9.3748775e-07 -3.3574333e-06 1.6790157e-06 -4.9667565e-06
-1.1407109e-07 -1.7499846e-06 -1.966628e-06 -1.4895978e-06 -2.1683484e-06 4.6568624e-07 1.2498376e-06 -1.8721711e-06
-1.2182267e-06 -1.535114e-06 1.0342559e-06 -1.2258067e-06 -1.4219753e-06 7.7509725e-08 1.4845334e-06 1.019229e-05

post_encoder.1.weight f4 [32]
00000000: 1ede 663f 60df 663f b0e0 663f f3dd 663f
00000010: 79da 663f 1ce1 663f 97db 663f 91dd 663f
00000020: 88e0 663f eddd 663f 74db 663f dfe2 663f
00000030: 73e0 663f 20de 663f 89e1 663f 77dd 663f
00000040: 4ee2 663f 59e0 663f 1ee1 663f 41dd 663f
00000050: 8fde 663f c2dd 663f 1ed6 663f cfe0 663f
00000060: e6e1 663f 47dc 663f b1e1 663f c1dd 663f
00000070: 26e4 663f 6de2 663f dde3 663f 70dd 663f
0.90182674 0.90184593 0.90186596 0.9018242 0.9017711 0.9018724 0.9017882 0.90181834
0.9018636 0.9018238 0.9017861 0.9018993 0.9018623 0.90182686 0.9018789 0.9018168
0.90189064 0.9018608 0.9018725 0.90181357 0.9018335 0.90182126 0.90170467 0.9018678
0.90188444 0.90179867 0.9018813 0.9018212 0.90191877 0.9018925 0.9019144 0.90181637

post_encoder.1.bias f4 [32]
00000000: 6e4e 053a 10b0 0aba 9662 0839 e1b6 c839
00000010: 36e8 6bba 3092 b139 6c9d c439 a15b 4cba
00000020: f8cd 6039 5949 2ab9 043d 3bb8 e82d f8b8
00000030: b841 d539 26d3 1bb9 b81e f739 90bd 64ba
00000040: 2338 c7b9 71d3 ceb9 f81c bab9 9782 9e37
00000050: bdbf 46ba 0803 39ba 4998 8d38 8177 d9b9
00000060: 4c80 803a 1490 29b9 478c 3139 b2df bb39
00000070: 9509 6bb8 8be0 89b9 8c26 4bba 5219 d739
0.00050852343 -0.00052905176 0.00013006697 0.00038283228 -0.00089991407 0.0003386899 0.00037501322 -0.0007795636
0.00021439034 -0.00016239788 -4.46411e-05 -0.00011834112 0.0004067549 -0.00014860611 0.00047134398 -0.0008725757
-0.00037998063 -0.00039448918 -0.00035498268 1.8895878e-05 -0.0007581672 -0.00070576416 6.751769e-05 -0.00041478503
0.000980386 -0.00016170769 0.00016932293 0.00035834085 -5.603729e-05 -0.00026297974 -0.00077495794 0.0004102686

post_encoder.1.running_mean f4 [32]
00000000: fa6c b33c 3443 d93d f295 663e e531 063e
00000010: 5405 313d ba0b 8e3c 5b4e ccbc a06b 51bd
00000020: 9fe7 c73d 29b8 9d3d 3ae6 a63d da2d 303c
00000030: 8f7a a2be d256 a73d bd29 06bc 23ef aa3d
00000040: 9a07 aa3d 62a3 ebbd b4dc b8bd 5f77 38be
00000050: 60a5 d23c d1f2 85bd 561f 17be 4d46 36be
00000060: ec90 f13d 54b4 1f3e be4c f23d e771 f43d
00000070: 8237 17be 913b 183e edff 3dbd a9c8 28bc
0.02190255 0.10608521 0.22518137 0.13104971 0.043217972 0.017339576 -0.024939707 -0.05112803
0.09760975 0.077011414 0.08149381 0.010753119 -0.3173413 0.081708565 -0.008188662 0.08346393
0.08302231 -0.11505772 -0.09026471 -0.18014286 0.025713623 -0.06540454 -0.14758047 -0.17800255
0.1179522 0.15596133 0.11831044 0.11935788 -0.14767268 0.14866473 -0.046386648 -0.010301747

post_encoder.1.running_var f4 [32]
00000000: 8ebb c838 e0f4 963a e089 4e3b a9bf 923a
00000010: 54d1 cf39 89ea a838 ad1a 5539 4c5f 8439
00000020: e735 713a 4f1c 1a3a 8e02 423a 726d 4439
00000030: 3e4b b83b b34f c139 acd0 7538 54a6 d639
00000040: 14ec 5b3a 1d16 923a 5c5d 033a 0437 143b
00000050: 2479 c239 9e76 053a b3a8 0b3b b914 f63a
00000060: d9a9 a73a dd21 003b 6371 953a a30b 733a
00000070: bb3e be3a f337 cf3a 29e4 7439 b6f7 a638
9.571678e-05 0.001151707 0.0031515285 0.0011196035 0.00039638078 8.05455e-05 0.000203232 0.00025248004
0.00092014525 0.0005878852 0.00074008934 0.00018732788 0.005624204 0.0003687121 5.8606893e-05 0.00040941185
0.00083893654 0.0011145506 0.0005011165 0.00226158 0.0003709282 0.00050912227 0.002131027 0.0018774486
0.0012791707 0.0019551434 0.001140159 0.00092714484 0.0014514545 0.0015809521 0.0002335465 7.9616366e-05

post_encoder.3.weight f4 [32, 32, 3, 3]
00000000: f985 58bd 12e8 11ba 422d 1dbd 94f6 113d
00000010: 541d 2cbd 10fb ebb9 3e20 25ba 1a87 00ba
00000020: 0a16 5eba 3664 b1ba 51ea ddba 099a 163e
00000030: 8f5f 743c 2a0c a9bd 4d29 6d3c 1e54 02bd
00000040: c48e 0a3b 76ef 64ba 93f7 873c 81ad e1ba
00000050: 7a32 fcbc 3008 8bbb ad93 d5ba dcff b8ba
00000060: 35b6 ddba d207 7a39 b4f0 93ba 83ea f2ba
00000070: 4ee7 eeba beba f2ba 3a23 89ba 40de 08bd
00000080: c4e6 00bb d391 403c 0016 d2b9 cbd4 75ba
00000090: 2c86 0ebd 4f22 2fb8 5846 50ba 8d09 683c
000000a0: c06e ac38 2a9c 0aba c7e8 103a bc50 e037
000000b0: fe81 5bb9 f876 07ba d2c3 fdb9 1ba2 83bd
000000c0: 1498 68ba 76ba ebb9 50a1 47ba 3c5d cbbb
000000d0: 05ed 4e3c 0826 b3ba 5ffb fb3c c3dc 163e
000000e0: d60b ac3d 2538 dab9 26e4 a23c d54f d33a
000000f0: 9256 20bc 5408 5dbd 0e6d 923a b103 cd3b
00000100: ba1d e33c e137 a937 0490 b1ba b846 fcb9
00000110: c3a3 cebc 65a3 9a3c 8c99 a13d 2156 2abc
00000120: 909e b83c 90fb 26bc 2385 79bb d6cf 033d
00000130: 2a26 9aba 1653 ebba 12d7 ecbd f64b b93d
00000140: 4220 90ba f4c9 313e f8a0 26bc 79aa 83ba
00000150: a925 1fbb ead5 ccba ea9e 19bb 1452 663d
00000160: 401d 2b3c ce41 e0ba 0d71 d6ba 9b0a f4ba
00000170: cb12 8fbb b30a e3bb 7666 a43b db87 c2ba
00000180: a925 0fba 03ac fa3b ce85 f5ba b736 ba3b
00000190: 491a 58bd a5a6 c138 60ab f439 36e1 f2bd
000001a0: 1bb1 15bd 802a 41ba e13d b1bb 6f08 45ba
000001b0: f579 a1ba c874 3e3d fae5 af3a b08b a33d
000001c0: 1e13 8c3d d764 623c a9bb 543d 3ec9 e13a
000001d0: 6a06 d93a 3298 88ba 39d9 bdba 5919 ae3c
000001e0: d9a1 30bc 015e c9ba 4af7 56bc f69e c33c
000001f0: 349c 2abb 3e63 91ba 483d e63a 53c5 1dba
00000200: cec6 5a3a 25a7 a6ba db1a 13ba 3771 463a
00000210: 6201 d3ba c8a4 6bba 10da e1b8 b44f 633a
00000220: 3b4c 02bb 540e c73d 9816 9d3d 3c12 81ba
00000230: ba3d aa3b e18b 18ba 0c8e 97ba 71ac 923d
00000240: 3ba5 13ba afd6 8bba 6510 21bb cfa7 47ba
00000250: 4423 7fba aa0c d2bb 4b03 dd3b 68f8 ddb9
00000260: 736e 843a 4583 f63a fbb4 59bd d112 f7bc
00000270: 89ab 1b3b 4df5 0c3b 4b17 233b b583 ff3a
00000280: 2417 b03a aaf1 553a c785 bd3a 9dd3 bb3a
00000290: d52c 8b3a b0bd e93a 61d1 f33c e24e ac3b
000002a0: d033 353b 9dc6 4b3d b382 0e3b 3ee4 6f3a
000002b0: 606a c4bd 26d0 c939 fffd 6b3a 0dfc 653a
000002c0: 427c 083b 74b9 ad3d 0262 f33c cb2b 493c
000002d0: a306 7b3d ccb3 0f3c c997 29bd 7ea6 b3bd
000002e0: 29ca 9a3d 0747 02ba cba7 09ba 698d b5b9
000002f0: c439 453c 48cc 1f3a 7044 09bc 7110 783a
00000300: 8e15 04be 509f fb3a 87c4 1e3b b5ad 983a
00000310: 02a5 ae3c c859 a03b cc79 0e3b 7f5b 163b
00000320: ce41 223d d034 293b 792a 0d3b 5f65 033b
00000330: 7fe3 613d 8cc5 e43c eb5f 173b 0a56 ca3a
00000340: 8259 e4bc 0018 b2bc 4bd9 f2bc e845 0e3c
00000350: f914 ad3a 434c e93a d952 2c3b 18a3 0cbb
00000360: 1e8a b4ba 62f1 41ba 5a7a a6ba a977 dcbc
00000370: bd07 adba df7d a83b 8e53 22bb d145 9aba
00000380: 4c27 893c 65f5 31ba efcb d83b e864 1ebc
00000390: f805 debc 3aee 4cba 82d6 97ba b6f8 73bb
000003a0: 45e4 94ba 2f2e 8e3c ff83 9a3c 8e72 83ba
000003b0: 6d97 1a3d cfc8 b5ba 7455 56ba 6867 83ba
000003c0: 4be6 d63c 3817 9b3d 5dc6 9bbd cf05 f3ba
000003d0: 0690 1ebd 149f 40bd c889 83ba 87e0 b2ba
000003e0: 6e0a b5ba 7df1 b7ba a7e8 d3ba 0a2d b63c
000003f0: 7fb1 02bd b937 b73a 118b a93a fa99 06bc
-0.05286214 -0.0005565892 -0.03837324 0.035635546 -0.042020157 -0.0004500975 -0.0006299055 -0.0004902944
-0.0008471912 -0.0013533894 -0.0016930794 0.14707197 0.014915361 -0.08254273 0.014475179 -0.0318185
0.0021142224 -0.0008733192 0.016597545 -0.0017217846 -0.030785788 -0.0042429194 -0.0016294621 -0.0014114338
-0.0016915264 0.00023844771 -0.0011286945 -0.0018533025 -0.0018226893 -0.0018518788 -0.0010462769 -0.03341508
-0.0019668797 0.011753517 -0.00040070713 -0.0009377717 -0.034795925 -4.1755204e-05 -0.00079450523 0.014162433
8.222228e-05 -0.00052875525 0.00055278506 2.6740476e-05 -0.00020933893 -0.0005167569 -0.00048401818 -0.064274035
-0.0008872759 -0.00044961617 -0.0007615285 -0.0062061828 0.012629752 -0.001366795 0.030759512 0.14732651
0.08400695 -0.0004162203 0.01988418 0.0016121814 -0.009786265 -0.05396302 0.0011171417 0.0062565436
0.027724136 2.017239e-05 -0.0013546948 -0.00048117875 -0.025224572 0.01887674 0.07890615 -0.010396511
0.022536546 -0.010191813 -0.003807374 0.03218063 -0.0011760641 -0.0017953839 -0.11564459 0.090476915
-0.0010995942 0.17362195 -0.010170214 -0.0010045312 -0.0024283922 -0.0015627716 -0.0023440667 0.05623062
0.010443985 -0.0017109455 -0.0016360596 -0.0018618883 -0.004366254 -0.0069287657 0.005017097 -0.0014841513
-0.0005460629 0.0076499 -0.0018731894 0.005682792 -0.052759442 9.233997e-05 0.0004666699 -0.11859362
-0.036545854 -0.0007368699 -0.005408988 -0.00075162103 -0.0012319671 0.04649809 0.0013419979 0.07985628
0.06839584 0.013817987 0.05193678 0.0017226113 0.0016557698 -0.0010421334 -0.0014484293 0.021252321
-0.010780775 -0.0015363098 -0.013120482 0.02387951 -0.0026033046 -0.0011092199 0.0017565871 -0.00060184783
0.0008345664 -0.0012714608 -0.0005611607 0.0007569971 -0.0016098435 -0.0008989093 -0.000107694534 0.00086712395
-0.0019881863 0.0971953 0.07670325 -0.0009847353 0.0051953467 -0.00058191834 -0.0011562719 0.07161797
-0.0005632226 -0.0010668839 -0.0024576422 -0.0007616253 -0.0009732733 -0.006410201 0.0067447773 -0.00042337482
0.0010103717 0.0018807432 -0.053151112 -0.03016034 0.0023753366 0.0021508515 0.002488571 0.0019494208
0.0013434631 0.0008161316 0.0014459424 0.0014330033 0.0010618219 0.001783302 0.029762926 0.005258427
0.002764929 0.04974996 0.0021745383 0.0009151137 -0.09590602 0.0003849279 0.0009002387 0.0008773215
0.0020826017 0.08482638 0.02970982 0.012278507 0.061285626 0.008770894 -0.04140452 -0.0877199
0.0755809 -0.00049696903 -0.00052511384 -0.0003462837 0.012037698 0.0006095809 -0.008378133 0.0009462899
-0.12898847 0.0019197259 0.0024226026 0.0011648448 0.021318916 0.0048935153 0.0021740077 0.002294272
0.039613537 0.0025818832 0.0021540208 0.0020049436 0.055148598 0.027926229 0.0023097943 0.0015437019
-0.027874712 -0.02173996 -0.029644629 0.008683659 0.0013205103 0.0017799217 0.0026294498 -0.0021459516
-0.0013774072 -0.00073983346 -0.0012701259 -0.026912527 -0.0013201159 0.005141958 -0.002476904 -0.0011770074
0.016742371 -0.0006788581 0.0066161077 -0.009667613 -0.027102455 -0.0007817481 -0.0011584314 -0.00372271
-0.0011359534 0.017356006 0.018861769 -0.0010028647 0.037742067 -0.001386905 -0.00081761857 -0.0010025324
0.02623286 0.07572788 -0.07606194 -0.001854116 -0.03871157 -0.04702671 -0.0010035569 -0.0013647237
-0.0013812312 -0.0014033761 -0.0016167358 0.022238273 -0.031907555 0.0013978399 0.0012935122 -0.008215422

post_encoder.3.bias f4 [32]
00000000: ee32 5634 2aa0 8eb4 6c74 9334 52af 9131
00000010: d7a3 2c33 e111 08b3 80f8 ebb3 f39a d034
00000020: 45b0 e234 c03b 94b3 13bc 8a32 bc04 d0b4
00000030: 3adc 2435 d010 bab3 1493 2ab4 1e39 d4b2
00000040: e4a4 72b4 8833 2c34 8d17 5633 4cb7 3735
00000050: 2580 a6b3 c5b1 1334 6799 a633 22df bd33
00000060: 19a4 71b4 827b 08b3 9efa 5634 c842 d533
00000070: 05a4 aeb2 8777 f7b3 fae2 1b34 3e03 ac34
1.9948831e-07 -2.6566096e-07 2.7465592e-07 4.239987e-09 4.0195882e-08 -3.168123e-08 -1.0988242e-07 3.885576e-07
4.2224033e-07 -6.9026555e-08 1.615084e-08 -3.8746464e-07 6.141523e-07 -8.664358e-08 -1.588599e-07 -2.4706022e-08
-2.2597993e-07 1.6037495e-07 4.9847177e-08 6.8439545e-07 -7.753287e-08 1.3755114e-07 7.757881e-08 8.841586e-08
-2.2504572e-07 -3.1777297e-08 2.0021477e-07 9.930733e-08 -2.0330853e-08 -1.1523576e-07 1.4518073e-07 3.2039856e-07

post_encoder.4.weight f4 [32]
00000000: 7ae3 663f ebe0 663f 13dc 663f 89e2 663f
00000010: cae4 663f a1df 663f 6dde 663f 74df 663f
00000020: 83de 663f 07e4 663f 18dd 663f 45dc 663f
00000030: 47dc 663f acde 663f 07e1 663f 1ae1 663f
00000040: 4adf 663f 67e4 663f 5eda 663f f1e0 663f
00000050: 68de 663f d4e1 663f 8cdc 663f 16e1 663f
00000060: 2edc 663f cfdf 663f e2d8 663f afd7 663f
00000070: 2fdd 663f 73db 663f 8fe1 663f 16de 663f
0.9019085 0.9018695 0.90179557 0.90189415 0.90192854 0.9018498 0.90183145 0.9018471
0.90183276 0.9019169 0.9018111 0.90179855 0.90179867 0.9018352 0.90187114 0.9018723
0.9018446 0.90192264 0.9017695 0.90186983 0.90183115 0.90188336 0.9018028 0.90187204
0.9017972 0.90185255 0.90174687 0.9017286 0.9018125 0.901786 0.90187925 0.90182626

post_encoder.4.bias f4 [32]
00000000: 02fb f6b9 d577 55ba f38c c0b9 5629 8f38
00000010: 02ee 2bba 2a7f 7bb9 e299 a1b9 581d 45b9
00000020: 3f86 12b9 9098 beb9 f235 02ba 1c12 70ba
00000030: fa28 9eb8 2fa7 08ba 93c3 3bb8 86ab 91ba
00000040: 291f b6b7 a8cc d1b8 8b69 04ba 839c c138
00000050: 7271 6fba a957 8539 b586 ccb9 0e2f 07ba
00000060: d4f7 1fb9 18f5 e739 809f 2a39 1450 c238
00000070: 2a6f cab9 23c0 c0b9 79ff 86b9 ed30 d438
-0.00047107792 -0.00081431615 -0.0003672611 6.826471e-05 -0.0006558598 -0.00023984598 -0.00030822965 -0.00018798315
-0.00013973656 -0.00036353292 -0.0004967145 -0.0009157972 -7.5416596e-05 -0.00052129006 -4.4766417e-05 -0.001111374
-2.17106e-05 -0.00010004017 -0.00050511275 9.23211e-05 -0.0009134031 0.0002543305 -0.00039010277 -0.0005156853
-0.00015255745 0.00044242362 0.00016271882 9.2655566e-05 -0.00038611266 -0.00036764247 -0.00025748814 0.00010118061

post_encoder.4.running_mean f4 [32]
00000000: 39b6 853e dc1e c4bd 1a76 8fbb 88b2 3f3e
00000010: a7bc 3a3e c788 3b3d e78c 023e 291f 3abe
00000020: 32ff 4d3c 2884 a73e bc8b d23d 3c18 703e
00000030: abc2 67be 2d7d 73be adb6 253d 4a6e de3e
00000040: 0658 bdbd cdfc 81bc 34ff 903e ff8f 5c3e
00000050: d9cf a5be c453 c0bd 3991 113e 2006 bdbd
00000060: ca3b 9cbd c481 a83e 2ff5 00be 1ef9 073e
00000070: 3ba0 3ebe f550 bf3e 752e eabd 8993 c53d
0.26115587 -0.095761985 -0.0043780925 0.18720448 0.18236028 0.045784738 0.12749062 -0.18175949
0.01257305 0.32718015 0.102805585 0.23446745 -0.22632854 -0.2377822 0.040457416 0.4344352
-0.09245305 -0.015867615 0.28319705 0.21539305 -0.32385138 -0.09390977 0.14215554 -0.09229684
-0.07628591 0.32911503 -0.1259353 0.13278624 -0.1861581 0.37366453 -0.11434642 0.09647281

post_encoder.4.running_var f4 [32]
00000000: 838e ba3d 19ce ee3c 36fd 443e a03e a03d
00000010: 8972 833d 1ed9 983d 1b09 213e ccc4 783d
00000020: d915 2d3e 71c8 173e b945 f23d 441f 7b3d
00000030: 3a26 313d cfa9 ca3d 6221 ad3e b160 053e
00000040: a570 0a3e 4169 3a3d a1ca a93d ac53 873d
00000050: 95b4 e63d 622d df3d bc21 b33d 80ef e43c
00000060: 96db 203e bf76 b23d 1e74 553d 05a3 043e
00000070: ccec c73d 0492 d63d e989 043d f093 b33d
0.09109213 0.02915101 0.19237217 0.07824445 0.0641833 0.07463287 0.1572613 0.060734555
0.16902865 0.14822556 0.11829705 0.061309114 0.043249346 0.0989567 0.33814532 0.13025166
0.13519533 0.045510534 0.082906015 0.06607756 0.11264912 0.10897328 0.08746669 0.027946234
0.15708765 0.08714055 0.05211269 0.12952812 0.09761962 0.10477069 0.032358084 0.08768451

middle.0.weight f4 [64, 64, 3, 3]
00000000: f530 053a 8125 e1b9 68d6 11bc 3d4e d639
00000010: 3c35 18bc 7caf 81ba 9b88 313a d694 5e39
00000020: aeb7 2cba 92d0 51bc 615d 06bb ff69 ddba
00000030: 0521 523c a99a c2bb 2452 f3ba e357 3739
00000040: 2923 c1ba 14b6 093d 0876 babc 5bbf ddb9
00000050: de42 92ba 15d6 233a 869b 7f3b 1232 8eba
00000060: 1e93 353a d596 fd3b 3576 12bc bf9b 3d3c
00000070: ae12 1cbc 563e 09bb 151c f5bc bb66 d5ba
00000080: ee65 2cbb ce33 aaba 8d52 17bb 0cbf 12bb
00000090: fd77 4439 7a25 b5b9 4fec 963a 4aa6 0eb8
000000a0: 3dff 4aba 7edf 1b3a ded5 e3ba e5ac 11ba
000000b0: 4879 15b9 146f 103a 3b74 81ba b221 63ba
000000c0: 9632 403a ada3 e339 0486 0a3b e111 93bb
000000d0: 7e0b 49b9 f58d bd3a c8d7 49b9 13ed 8cbb
000000e0: 3327 2fb8 7365 00ba e80f feb9 64c2 4e39
000000f0: efd1 1eba 0bff 2bba 84df 8538 dfdf daba
00000100: dc77 40bb 9348 fab9 400a e5ba cd5d 66bb
00000110: 096d 52ba 3c57 12bb 6129 1bbb 705f 67bb
00000120: c4c9 6dbc afc3 fab8 6bdf 21bc e88b 8839
00000130: 5175 fbb9 b065 dfb9 69bf db3a 9c7e b0bc
00000140: f012 d239 c3ca d9ba 0047 06bb 1365 faba
00000150: 8ea0 0fbb 7b51 2dbb 944c 28bb bb97 06bb
00000160: 5ee6 4bbb f786 57bb f418 8db9 7355 313c
00000170: 67f5 3a3b ebed 85ba 098a beba 3236 18bb
00000180: 89a8 84ba d59a 62bb f178 1dbc 49d1 933a
00000190: 5f56 1438 e979 55b9 d15a dfbb 2522 00bc
000001a0: 89e4 84b9 8775 693a 9dbb 09b9 8fee 2bbc
000001b0: 0e6f c0ba e3a0 08b9 2f84 3eba 5a22 083b
000001c0: eedb 07bd 2110 5cba b709 5b3b fa8a 893c
000001d0: 4957 28ba 3700 a5ba cea0 15bb 8650 1cbb
000001e0: 8e37 fdba bb3b 0dbb 4be4 80bb f4bf f43a
000001f0: 6448 16bb 9911 963a 7e27 fa3a 9274 c23a
00000200: fa8d f63a 80df aa3a 0b6f c93a b9ab e3bc
00000210: 7a51 6c3a 4ce4 923a 4e38 d03a ad6f 7e3a
00000220: 27b4 113a 290d 13bc 9166 113c 424a 66bb
00000230: 6f85 8c3a d1e6 443c 8d41 df39 9aad d93a
00000240: 0b8f c4b9 8b0d 00ba 7eb6 99ba 7f1e 83bc
00000250: fbbd 9aba fe0c e2ba 5ffb af37 122e d0b9
00000260: afd6 37ba 50a2 78ba 2c27 88b9 3f89 653c
00000270: 5f45 4d3a ddf0 f03b d6d5 9638 7f0f f53c
00000280: 5ac6 6e3a c115 6737 83ea c9ba cbd3 353c
00000290: f40a 07bb 7b8d 12bb 0a39 34bb b9ab 49bb
000002a0: aa11 34bb 1bc5 463d 3478 8cbb 5508 a7bb
000002b0: ec2e 28bb 18a1 23bd 357f 2bbc 3a4d 33bb
000002c0: 86de c4ba 8d98 eeba fdae 48bb a536 5b3b
000002d0: 0753 c7b9 73c2 e2b9 a974 1fba 5ca2 853c
000002e0: 6dea b938 9dfc 2c3d 90b6 233a 066e 113a
000002f0: 7684 9d3a 13cc 95ba 00cc 20ba 5b53 42bb
00000300: fe8c ceba 5fab 59ba 7bd9 b7ba 1702 ca3b
00000310: 0c5c 15bb 16e1 b73c 19f8 7bbc 40e0 1abc
00000320: 30d5 17bc 62de 2fba 509b c6ba ee7f 5dba
00000330: 44d0 8cbb 8182 78ba 9271 e4ba ac5f 0bba
00000340: 5247 7fbd b4e8 9cba 4077 46b9 03eb 18bd
00000350: a640 11bb 13af 0cbd b44a cc3c a14a 823c
00000360: a2a1 133a 1cc3 043b 71f2 0f3b bb1e ea3a
00000370: 44c1 35bb 7548 bdbc d9ae 5d3a fa3f 9d3a
00000380: 84c3 003b c029 66b9 e84b 76ba 1057 10ba
00000390: 578f 5c39 1e8d 60ba e243 bc39 ea7b a839
000003a0: 9a7b 37b9 fce2 773b 1574 b33a 3355 13bb
000003b0: 6330 39ba 1284 7c3a a8ae 083a 9c3b 4f3d
000003c0: e4f4 02bd ea7d 8539 a571 50b6 c3bf e2bc
000003d0: e624 fc39 89ab a73c 824e c63a f18e be39
000003e0: eef4 1d3d 1c39 ab3a 88d8 a53a c494 29bd
000003f0: 02da 50b9 de35 87ba 75dc 09bb e5ec aeb9
0.00050808425 -0.00042943287 -0.008901216 0.00040875553 -0.009290036 -0.0009894217 0.000677237 0.00021227016
-0.00065886497 -0.012806075 -0.0020502436 -0.0016892551 0.012825255 -0.005938847 -0.0018563909 0.0001748498
-0.001473521 0.03362091 -0.02276136 -0.00042294976 -0.0011158844 0.0006249857 0.0039002611 -0.0010848662
0.0006926524 0.007738928 -0.008939316 0.011572777 -0.009525938 -0.0020941696 -0.029920617 -0.0016281226
-0.0026305872 -0.001298541 -0.0023089976 -0.0022391705 0.00018736716 -0.00034550932 0.0011514517 -3.4010307e-05
-0.0007743722 0.00059460837 -0.0017382463 -0.00055570743 -0.00014254928 0.0005509716 -0.0009876558 -0.0008664384
0.00073317566 0.00043418762 0.0021137008 -0.0044882153 -0.00019173135 0.0014461862 -0.00019249239 -0.0043007224
-4.175976e-05 -0.00048979296 -0.00048458506 0.00019718107 -0.0006058504 -0.00065611367 6.383567e-05 -0.0016698799
-0.0029368317 -0.00047737788 -0.0017474368 -0.0035151124 -0.0008027112 -0.0022329828 -0.0023675787 -0.0035304688
-0.014513437 -0.00011957378 -0.009879927 0.0002604418 -0.00047961858 -0.00042609638 0.0016765419 -0.021544747
0.0004006843 -0.0016616214 -0.0020489097 -0.0019103609 -0.0021915766 -0.0026446271 -0.002568041 -0.0020537216
-0.0031112651 -0.0032886842 -0.00026912207 0.010823595 0.002852762 -0.0010218 -0.0014536987 -0.0023225662
-0.0010121028 -0.003457715 -0.009611354 0.0011277582 3.536639e-05 -0.00020358678 -0.006816246 -0.007820641
-0.00025347274 0.00089057576 -0.0001313523 -0.0104938885 -0.0014681534 -0.00013029906 -0.00072676217 0.0020772428
-0.033168726 -0.00083947374 0.0033422539 0.016789902 -0.0006421698 -0.0012588565 -0.0022831443 -0.0023851707
-0.0019318925 -0.0021550495 -0.0039334646 0.0018672929 -0.0022931332 0.0011449336 0.0019085256 0.0014835766
0.0018810623 0.0013036579 0.0015368176 -0.027791845 0.00090148265 0.0011206954 0.0015885921 0.0009705972
0.0005558156 -0.008975306 0.008874551 -0.0035139476 0.0010720919 0.012017922 0.00042582714 0.0016607523
-0.00037490609 -0.00048848306 -0.001172736 -0.016005753 -0.0011805886 -0.0017246304 2.097868e-05 -0.00039707177
-0.00070128863 -0.00094846357 -0.00025969127 0.014009773 0.00078304665 0.007352932 7.1923874e-05 0.029914616
0.0009108536 1.3773738e-05 -0.0015404973 0.011097859 -0.0020605894 -0.002236216 -0.0027499818 -0.003077252
-0.002747635 0.04852782 -0.0042867903 -0.005097429 -0.0025662733 -0.039948553 -0.01046734 -0.0027359263
-0.001501993 -0.0018203423 -0.003062188 0.0033449319 -0.00038018098 -0.00043250955 -0.00060827524 0.01631277
8.8651526e-05 0.0422331 0.00062451605 0.0005547706 0.0012017626 -0.0011428617 -0.0006133914 -0.0029651735
-0.0015758572 -0.00083034293 -0.0014026606 0.0061648 -0.002279046 0.022446197 -0.015378975 -0.009452879
-0.009267136 -0.0006708858 -0.0015152488 -0.0008449544 -0.004297288 -0.0009479896 -0.0017428866 -0.00053166854
-0.062323876 -0.0011971206 -0.00018927176 -0.0373335 -0.0022163778 -0.03434665 0.024937965 0.015904726
0.000563169 0.0020257896 0.0021964575 0.0017861942 -0.0027733603 -0.02310584 0.0008456535 0.0011997216
0.0019647786 -0.00021950062 -0.0009395466 -0.00055061374 0.00021034233 -0.000856595 0.0003590873 0.0003213578
-0.00017498285 0.0037824502 0.0013691211 -0.0022481203 -0.00070644 0.0009632717 0.0005214014 0.050593957
-0.031971827 0.0002546155 -3.1060565e-06 -0.02767933 0.00048092677 0.020467537 0.0015129598 0.00036346124
0.03856366 0.0013063285 0.0012653032 -0.04140164 -0.0001991764 -0.0010315736 -0.0021035944 -0.00033364366
