xbd_pipeline_output/localization_model/model_epoch4.pth (torch, 31745 bytes, 7 tensors)

encoder.0.weight f4 [16, 3, 3, 3]
-0.18697841 -0.1407931 -0.070335515 -0.03319182 0.12756692 -0.16551863 0.059418853 -0.085189216
-0.14572401 0.025063628 0.0015439382 0.015003728 -0.062011138 0.15117903 -0.002492574 0.07187639
-0.14433694 -0.15421474 0.12123242 0.10701089 0.019899437 0.15149795 -0.120029286 -0.077239476
-0.08891246 0.067107 -0.16831304 0.17172338 0.18680662 0.18487382 -0.04350846 -0.15324435
0.09735481 0.018478917 0.03510784 -0.18799211 0.12523773 0.16537057 0.16763958 -0.18131584
0.10498498 -0.18163908 -0.10310438 -0.024562942 0.17586195 0.043400075 0.04542701 0.096739985
0.18999724 0.12785684 -0.14853679 -0.15517692 0.039302688 0.18320464 -0.046607424 -0.01760215
-0.06803915 0.021127515 0.08398126 -0.054595966 0.094316274 -0.08312101 0.1508552 0.17035207
0.13268538 -0.19333766 0.034122415 -0.09173993 -0.049593084 0.010626184 -0.0122015355 -0.1665843
-0.0051076794 -0.113982454 -0.029654125 0.056146465 0.07618151 0.13432632 0.13783014 -0.0017013291
-0.1925362 -0.14889838 0.11054774 -0.10573297 0.03267421 -0.11675405 -0.022308514 0.097090974
-0.12587517 -0.19231802 -0.077393286 0.083549306 0.1548778 -0.027636558 -0.0047533363 -0.028383717
0.04870291 0.07248746 -0.076122075 0.023524195 -0.13396016 -0.04840666 -0.019406617 -0.0040157586
0.10151254 -0.0748026 0.01918137 -0.15033507 -0.09773898 0.13490541 0.16727208 0.068302944
-0.06328936 -0.088173054 -0.032338202 0.15877102 -0.12168427 -0.1387359 -0.10001912 -0.013254687
-0.18338235 0.0593888 0.147693 -0.14087562 -0.12914188 -0.19151445 0.00836347 -0.18184784
-0.16609354 0.13741998 -0.05035624 0.13286008 -0.0793912 0.00471358 -0.18205625 -0.08373865
-0.11429224 0.17603377 -0.08518728 0.12171104 0.015090943 0.13379145 -0.056993917 -0.13054682
0.068217285 -0.09750708 -0.021213524 -0.09129638 -0.11573442 -0.14012896 0.13462491 0.14684288
0.14016375 0.062705785 0.057055615 -0.06863458 -0.05760311 0.087420575 0.09375531 0.08239078
0.012286913 -0.1818622 -0.19146082 0.08081599 0.07171616 -0.18367311 -0.028096382 0.06660571
0.032252345 -0.07104244 -0.058512118 0.048036158 -0.04653873 0.092691615 0.03259196 0.04311243
0.1604407 0.0032188846 -0.02433234 0.17598552 -0.07848332 -0.028310036 0.01281505 -0.031895608
-0.15328848 0.09211375 0.026013888 0.017903432 -0.13572776 -0.07081338 -0.13665102 -0.0488088
0.0034110693 -0.07243655 0.041506983 -0.10911809 -0.032314885 0.15169033 -0.016692575 0.0281143
0.15595572 -0.044708584 -0.14197703 -0.1287692 -0.1880871 -0.09335371 -0.043681346 -0.03762368
0.06455508 0.10708006 0.026122393 0.14896825 -0.137982 0.16776565 -0.10085719 0.057512227
0.17328279 0.047119483 -0.08792597 -0.10383892 0.13873412 0.049114447 -0.17805895 -0.06165753
0.032811005 -0.045046426 -0.1203275 -0.1452205 -0.18540981 -0.17322795 0.05099796 0.02365823
0.017654706 -0.16482405 0.152222 0.010161281 0.07817257 0.13478528 -0.15796365 -0.0973027
-0.061881065 -0.10222695 -0.09816864 0.086987615 -0.1457666 -0.070310466 -0.17319721 0.1590553
0.12745936 0.037821043 -0.09550092 0.15389009 0.17770329 -0.06600315 -0.05626261 0.16527501
00000000: 4577 3fbe 112c 10be 110c 90bd 25f4 07bd
00000010: e7a0 023e b77d 29be 2f61 733d af77 aebd
00000020: ad38 15be 3d52 cd3c f85d ca3a 32d2 753c
00000030: 64ff 7dbd adce 1a3e 745a 23bb ee33 933d
00000040: 10cd 13be 78ea 1dbe b448 f83d 8728 db3d
00000050: 2504 a33c 4722 1b3e ead1 f5bd bb2f 9ebd
00000060: bc17 b6bd 656f 893d 415a 2cbe 41d8 2f3e
00000070: 3c4a 3f3e 904f 3d3e ed35 32bd 16ec 1cbe
00000080: f561 c73d 1961 973c 3dcd 0f3d 0181 40be
00000090: 523e 003e e756 293e b6a9 2b3e dcaa 39be
000000a0: 5d02 d73d 98ff 39be 6428 d3bd 3938 c9bc
000000b0: 2815 343e 47c4 313d ac11 3a3d 9d1f c63d
000000c0: a38e 423e e7ec 023e 071a 18be b3e6 1ebe
000000d0: dbfb 203d ff99 3b3e 6de7 3ebd 6232 90bc
000000e0: 1c58 8bbd 9c13 ad3c 5efe ab3d 05a0 5fbd
000000f0: e428 c13d 593b aabd c979 1a3e c670 2e3e
00000100: adde 073e 4ffa 45be f2c3 0b3d 25e2 bbbd
00000110: 1e22 4bbd 7219 2e3c f3e8 47bc 1395 2abe
00000120: 525e a7bb a26f e9bd 35ed f2bc d6f9 653d
00000130: 0d05 9c3d d78c 093e 5823 0d3e 22ff deba
00000140: 3628 45be d178 18be da66 e23d 878a d8bd
00000150: 64d5 053d bf1c efbd 58c0 b6bc a2d7 c63d
00000160: 6ce5 00be 04ef 44be 5f80 9ebd e61b ab3d
00000170: 4998 1e3e 1066 e2bc e0c1 9bbb f884 e8bc
00000180: b47c 473d 4e74 943d e4e5 9bbd d0b5 c03c
00000190: da2c 09be 1046 46bd a0fa 9ebc a096 83bb
000001a0: cee5 cf3d 1b32 99bd 4022 9d3c 70f1 19be
000001b0: 602b c8bd a524 0a3e 5f49 2b3e 6ae2 8b3d
000001c0: da9d 81bd 1394 b4bd 1075 04bd df94 223e
000001d0: 9a35 f9bd c910 0ebe d3d6 ccbd 302a 59bc
000001e0: 95c8 3bbe ac41 733d d53c 173e b341 10be
000001f0: c53d 04be 5d1c 44be f006 093c 5236 3abe
00000200: 6d14 2abe d3b7 0c3e 5842 4ebd 790c 083e
00000210: da97 a2bd 6074 9a3b f46c 3abe 2b7f abbd
00000220: 0d12 eabd 3242 343e ab76 aebd a343 f93d
00000230: 0140 773c a000 093e 7472 69bd 11ae 05be
00000240: 81b5 8b3d cbb1 c7bd fcc7 adbc 99f9 babd
00000250: 2b06 edbd f77d 0fbe 1ddb 093e fb5d 163e
00000260: 1687 0f3e e46b 803d 26b3 693d 4990 8cbd
00000270: 3df1 6bbd 8f09 b33d c902 c03d 7fbc a83d
00000280: 0c4f 493c 163a 3abe 4e0e 44be db82 a53d
00000290: ecdf 923d ce14 3cbe 622a e6bc 9368 883d
000002a0: 091b 043d b37e 91bd 67aa 6fbd 90c1 443d
000002b0: 659f 3ebd 1ad5 bd3d 267f 053d a996 303d
000002c0: 914a 243e ecf3 523b 9e54 c7bc 8c35 343e
000002d0: ddbb a0bd 73ea e7bc 37f6 513c f8a4 02bd
000002e0: a8f7 1cbe 22a6 bc3d 141b d53c 38aa 923c
000002f0: 38fc 0abe 9b06 91bd 3fee 0bbe bceb 47bd
00000300: 3f8c 5f3b 9d59 94bd 3a03 2a3d 4e79 dfbd
00000310: 9d5c 04bd b654 1b3e debe 88bc f64f e63c
00000320: dbb2 1f3e 5920 37bd 6d62 11be 13dc 03be
00000330: e899 40be 3b30 bfbd 36eb 32bd 4a1b 1abd
00000340: 7435 843d ca4c db3d a1fe d53c 228b 183e
00000350: 274b 0dbe c2ca 2b3e 378e cebd f191 6b3d
00000360: 0b71 313e 5c00 413d 8812 b4bd 80a9 d4bd
00000370: 5110 0e3e 3b2c 493d 1655 36be 9b8c 7cbd
00000380: d564 063d 9a82 38bd 446e f6bd afb4 14be
00000390: 12dc 3dbe ab62 31be 3de3 503d e8ce c13c
000003a0: 9aa0 903c a3c7 28be 15e0 1b3e 807b 263c
000003b0: f118 a03d 2705 0a3e 39c1 21be a346 c7bd
000003c0: 0077 7dbd 5d5c d1bd a40c c9bd 9026 b23d
000003d0: d743 15be effe 8fbd 9c5a 31be 64df 223e
000003e0: b584 023e 3dea 1a3d fd95 c3bd 5d95 1d3e
000003f0: daf7 353e a92c 87bd 9f73 66bd da3d 293e

encoder.0.bias f4 [16]
0.1047141 0.092214 -0.018088898 -0.13149464 -0.073925465 0.010105458 -0.07469458 -0.020028317
0.062320713 0.04005998 0.05051816 0.006642618 0.14405695 0.14621149 0.056531176 0.10852723
00000000: 5974 d63d b2da bc3d 2b2f 94bc 88a6 06be
00000010: 3c66 97bd 5d91 253c 79f9 98bd 6d12 a4bc
00000020: 0144 7f3d ef15 243d 21ec 4e3d 52aa d93b
00000030: aa83 133e 77b8 153e 3c8d 673d 8643 de3d

encoder.2.weight f4 [32, 16, 3, 3]
-0.0829289 0.077760905 -0.027187567 -0.017849907 -0.04933211 0.008082441 -0.018689485 -0.04460471
-0.08070271 0.06226133 0.06759219 -0.03972876 0.073801085 0.048275445 0.04003125 -0.042915504
0.07623971 0.0389059 0.027201923 0.04120677 0.07939033 -0.080603845 -0.03148793 0.042988617
-0.050660845 -0.062229108 -0.032086145 0.013641357 0.057123013 0.01603017 0.046110295 0.08121615
-0.044611447 -0.046747297 -0.022107244 0.071050875 0.03385354 0.012164824 -0.034815848 -0.049297243
-0.013714157 -0.0060686767 -0.010059617 -0.039416127 -0.058718048 -0.00087085326 0.043827344 -0.030293837
0.03574845 -0.046986353 -0.0018197958 0.011108167 -0.0543981 -0.0102307 0.07824306 -0.05024185
-0.06725596 0.061808955 -0.0637606 -0.0701204 0.025012815 -0.068734385 -0.005737296 0.045748066
-0.010554066 0.017238222 -0.083372235 -0.017016903 -0.056040518 -0.04863913 0.011835915 0.07990705
-0.052351743 0.024510873 -0.044681028 -0.012473629 0.078760006 -0.07478532 -0.061097693 0.012287119
0.036449295 -0.028881736 -0.04408613 0.07041901 0.028599214 -0.023378354 0.064813346 0.022173086
0.005040855 -0.051041912 0.067611426 -0.05405369 0.07792304 0.00859475 -0.047901563 0.051574647
-0.007791665 -0.06762181 0.056733854 0.050789483 0.05557952 0.0141068995 -0.05466091 0.02818226
-0.0064574555 -0.03781642 -0.047889918 -0.021855108 -0.0032718973 -0.026549358 0.0049046865 -0.08665453
0.04701535 -0.045374285 -0.044491146 -0.015521939 -0.00063828396 0.032777596 0.018902045 0.046754744
-0.047406077 -0.039717957 -0.05936402 -0.057451695 0.059305657 -0.069674686 -0.07596384 0.07311907
-0.077251844 0.0333878 0.046473518 -0.082942255 0.03004178 -0.005765078 0.079661325 0.02027852
-0.0087131355 0.0125528835 -0.08093155 0.03034915 0.027847828 -0.0045093005 -0.024864374 -0.024255734
-0.03879875 0.010743719 0.05151446 0.080929115 0.08106076 0.07442668 -0.018841134 0.014702128
-0.056960814 -0.004101211 -0.0114065185 -0.056665275 0.027783358 -0.010373353 -0.04135463 0.0039098794
-0.0050087464 0.008333254 0.055112537 0.075821385 0.0148541415 0.0789873 0.012781938 0.055161197
-0.038678396 0.061834045 0.020050038 -0.071498126 0.024798669 0.06767594 -0.018999428 -0.0056975707
-0.019118123 -0.03482915 0.06349472 0.060937546 0.0014731213 0.016919859 0.076378204 -0.08131723
-0.032255612 -0.00313472 0.029490054 -0.05505973 0.03606183 0.0017763072 0.051033508 0.053458672
-0.00043949447 0.052040353 0.029225202 0.040879156 0.078693725 0.06140145 0.083261006 -0.00501757
-0.07834186 0.015956976 -0.044376057 -0.037490744 -0.00015636321 0.05376265 -0.0726686 0.04541551
-0.052115347 0.037941724 0.04974241 -0.02721428 0.08056996 -0.0028985254 -0.08323459 -0.050905365
0.014538643 0.08110342 -0.07897206 -0.07722451 -0.0044262037 0.057234645 -0.06757269 0.044726387
-0.06704284 0.08638012 -0.01890761 -0.07262084 0.001552933 0.04805073 0.02872814 -0.069992155
0.052739903 0.07567473 0.06266702 0.049807157 -0.063814476 0.050690018 -0.06589133 0.07831007
0.0031111157 0.01553024 0.03655258 0.028391354 -0.053011965 -0.078847125 -0.043551534 -0.0811259
-0.07996642 0.034143776 -0.00023660064 -0.059631437 0.0322317 -0.008910467 -0.021321215 0.015559375
00000000: a1d6 a9bd 1c41 9f3d 76b8 debc f839 92bc
00000010: 7710 4abd 376c 043c b11a 99bc 6eb3 36bd
00000020: 7647 a5bd bd05 7f3d c66d 8a3d a0ba 22bd
00000030: 0625 973d 79bc 453d cff7 233d 2bc8 2fbd
00000040: 9123 9c3d cb5b 1f3d 91d6 de3c 6ec8 283d
00000050: 6697 a23d a113 a5bd 7df9 00bd d514 303d
00000060: bf81 4fbd f3e3 7ebd c36c 03bd 0080 5f3c
00000070: d2f9 693d b451 833c 26de 3c3d a754 a63d
00000080: 7eba 36bd 187a 3fbd 401a b5bc 1f83 913d
00000090: 02aa 0a3d f84e 473c 109b 0ebd e8eb 49bd
000000a0: 58b1 60bc c0db c6bb 18d1 24bc ce72 21bd
000000b0: 5682 70bd f949 64ba 4d84 333d c82a f8bc
000000c0: f76c 123d c374 40bd 3786 eeba 07ff 353c
000000d0: 8bd0 5ebd aa9e 27bc e63d a03d 66ca 4dbd
000000e0: 7ebd 89bd 632b 7d3d eb94 82bd 499b 8fbd
000000f0: ade7 cc3c 9dc4 8cbd edff bbbb 5362 3b3d
00000100: f6ea 2cbc 2c37 8d3c 10bf aabd 0867 8bbc
00000110: be8a 65bd d339 47bd 6deb 413c 4fa6 a33d
00000120: c86e 56bd 07cb c83c 7403 37bd 315e 4cbc
00000130: ed4c a13d 0c29 99bd 9341 7abd ea4f 493c
00000140: db4b 153d 6499 ecbc a893 34bd d837 903d
00000150: e648 ea3c f683 bfbc dcbc 843d 55a4 b53c
00000160: c22d a53b 5311 51bd dc77 8a3d 6767 5dbd
00000170: 1d96 9f3d ffd0 0c3c 6e34 44bd f03f 533d
00000180: 3951 ffbb 4e7d 8abd c261 683d a208 503d
00000190: 5aa7 633d a020 673c 1ee4 5fbd 7cde e63c
000001a0: 1099 d3bb 64e5 1abd 3828 44bd 7c09 b3bc
000001b0: 546d 56bb 0a7e d9bc 7eb7 a03b ee77 b1bd
000001c0: 2b93 403d 63da 39bd 593c 36bd bb4f 7ebc
000001d0: 8352 27ba cd41 063d 76d8 9a3c e781 3f3d
000001e0: e02c 42bd 4caf 22bd b027 73bd 7852 6bbd
000001f0: 7dea 723d 9ab1 8ebd ee92 9bbd 73bf 953d
00000200: 3736 9ebd a5c1 083d 045b 3e3d a1dd a9bd
00000210: 2e1a f63c fbe8 bcbb 7a25 a33d 241f a63c
00000220: 8ac1 0ebc 9caa 4d3c 71bf a5bd c89e f83c
00000230: 2121 e43c c1c2 93bb 5fb0 cbbc f6b3 c6bc
00000240: 70eb 1ebd 6c06 303c d400 533d 2abe a53d
00000250: 2f03 a63d 046d 983d b958 9abc 32e1 703c
00000260: be4f 69bd 7463 86bb 68e2 3abc d919 68bd
00000270: ed99 e33c fff4 29bc 7963 29bd 721e 803b
00000280: 6920 a4bb 3388 083c afbd 613d 3e48 9b3d
00000290: c95e 733c 18c4 a13d 556b 513c b5f0 613d
000002a0: 3d6d 1ebd b245 7d3d fa3f a43c 9c6d 92bd
000002b0: 9426 cb3c af99 8a3d b0a4 9bbc b0b2 babb
000002c0: 9c9d 9cbc 03a9 0ebd 8509 823d a699 793d
000002d0: c015 c13a 849b 8a3c 2d6c 9c3d a689 a6bd
000002e0: 761e 04bd e06f 4dbb 2095 f13c 5086 61bd
000002f0: 92b5 133d fbd2 e83a 8308 513d 7bf7 5a3d
00000300: f36b e6b9 4428 553d b169 ef3c e770 273d
00000310: 2d2a a13d 1680 7b3d bf84 aa3d 6e6a a4bb
00000320: b271 a0bd 34b8 823c abc3 35bd e58f 19bd
00000330: 6ef5 23b9 3936 5c3d 46d3 94bd 9d05 3a3d
00000340: e776 55bd c868 1b3d b3be 4b3d 7bf0 debc
00000350: dd01 a53d 30f5 3dbb e676 aabd 2582 50bd
00000360: 7d33 6e3c 8d19 a63d 1abc a1bd e227 9ebd
00000370: b009 91bb e06e 6a3d 8d63 8abd 0433 373d
00000380: c24d 89bd 0fe8 b03d 22e4 9abc 3cba 94bd
00000390: c98b cb3a d8d0 443d 4757 eb3c 0c58 8fbd
000003a0: cc05 583d 5afb 9a3d 9157 803d 9702 4c3d
000003b0: 2ab1 82bd 56a0 4f3d 09f2 86bd 0861 a03d
000003c0: dce3 4b3b 8c72 7e3c 28b8 153d fc94 e83c
000003d0: 1323 59bd 9a7a a1bd 1863 32bd 5625 a6bd
000003e0: 6fc5 a3bd 58da 0b3d 0018 78b9 1840 74bd
000003f0: 6305 043d 35fd 11bc d4a9 aebc c0ec 7e3c

encoder.2.bias f4 [32]
-0.060450364 -0.019790927 -0.030500505 -0.07393315 -0.058539256 0.010994983 0.07984079 -0.04001839
-0.053695332 -0.047075115 -0.03852673 -0.05695511 0.06519704 -0.026262326 0.05000684 -0.009438474
0.053395778 -0.062206995 0.07918134 0.07361175 -0.023412118 0.05667747 -0.038293425 -0.0056899227
-0.049928963 0.011950824 0.06359481 0.07167666 0.048093297 0.08276354 -0.05773453 -0.016521275
00000000: cd9a 77bd 9520 a2bc 32dc f9bc 436a 97bd
00000010: dcc6 6fbd 4d24 343c 9183 a33d 53ea 23bd
00000020: a3ef 5bbd d6d1 40bd 34ce 1dbd c349 69bd
00000030: 0786 853d 1724 d7bc f9d3 4c3d d4a3 1abc
00000040: 88b5 5a3d c3cc 7ebd d429 a23d c2c1 963d
00000050: c5ca bfbc a326 683d 91d9 1cbd 8872 babb
00000060: 5082 4cbd 64cd 433c ff3d 823d 36cb 923d
00000070: 7afd 443d ee7f a93d 0b7b 6cbd a057 87bc

decoder.0.weight f4 [32, 16, 2, 2]
0.06819816 -0.06979562 0.09615569 0.114670575 0.048569307 0.021016153 0.0072431713 -0.051334307
0.014500436 0.05110033 0.0846868 -0.06325278 -0.03575702 0.08565504 0.026435884 -0.01617066
-0.10269715 -0.115611896 -0.109650575 -0.10693014 0.064500526 -0.084075525 -0.09109402 0.06970811
-0.11244513 -0.06648739 -0.11156121 -0.12595108 0.030167999 0.101706326 -0.019107964 -0.06330596
-0.122655764 -0.0502802 0.020331305 0.006629831 -0.0381428 0.062241867 0.011616304 -0.03006664
-0.023993978 0.107556984 -0.058934644 0.010871876 0.06446461 0.09175149 0.06733471 0.04908234
-0.11757251 -0.08382234 0.041494112 0.030075736 0.07357463 0.10119815 0.07607703 0.1204933
-0.07611499 0.036465425 0.020561626 -0.037048135 -0.09916684 0.054396138 -0.093665324 0.07648955
-0.102831684 -0.024732217 0.091276586 0.009951711 0.022562802 0.07390666 -0.076036096 0.046312675
0.10405181 -0.014313191 -0.041489705 0.10176602 -0.01842729 -0.019430436 -0.11002584 0.106181525
7.716767e-05 0.07038712 0.0038579807 0.027500832 0.04260169 -0.0965306 0.08803418 0.0070542693
0.0056714346 0.12488189 -0.08172719 0.07749839 -0.12649402 -0.042096883 -0.12455008 -0.035125386
0.09553945 -0.12315412 0.110047415 -0.041789684 -0.059436157 0.11296347 -0.11984354 -0.023462966
-0.053109422 -0.10794466 -0.044767078 -0.023623861 0.05055729 -0.065350235 0.06093362 0.09717724
0.020537494 0.096099444 0.027470969 0.036798917 0.037553463 0.0022229105 0.09679519 0.06250785
0.07375995 0.041175514 0.121288754 0.04350371 -0.059339803 -0.09759008 -0.042441476 0.029303044
0.08176027 -0.12281026 -0.09836164 0.055338547 -0.10340544 -0.047845747 0.05088508 0.023500413
-0.06650517 0.12104276 -0.10633063 -0.010353165 0.12038712 0.084458254 0.02430898 -0.01590472
0.10823831 -0.01313342 -0.019795954 0.047452215 -0.03844419 0.053212244 0.016952485 -0.09378068
-0.058841992 -0.039385468 0.10281657 0.03456154 0.10927004 -0.04626413 0.05097773 0.001864478
-0.048786446 0.034426063 -0.045640003 0.06954693 -0.008480921 0.10502264 -0.10624838 -0.013936877
0.072782226 -0.00084930914 -0.06388951 0.02078029 0.09649487 -0.011542506 0.064293 -0.030551046
0.06223448 -0.015110002 0.02985536 -0.04185289 -0.074599825 -0.037614167 0.12007697 -0.11209003
0.10704467 0.054848526 0.09803022 0.09787729 0.07494642 0.084833436 0.10518672 -0.086631455
0.0924761 -0.10260801 0.037004426 -0.121851325 -0.00488772 -0.06572527 -0.0097718835 0.052949563
-0.054918014 0.10714424 -0.11939506 -0.017814698 -0.08045946 0.008122354 0.08089686 0.013072804
0.0020533921 -0.04275784 0.08735612 0.0021402817 0.10193665 0.001778096 -0.11577219 -0.0008188337
-0.07867856 0.03640519 -0.023659304 0.08946827 0.0020078595 -0.098612525 -0.06262779 0.09288307
-0.048318967 -0.07997203 0.054044973 -0.107883945 -0.012265518 -0.00823316 -0.11312101 -0.067130506
0.077224426 -0.07184234 0.124280676 -0.093695164 0.035950333 -0.0032042183 0.0849776 -0.038652346
0.0128058735 -0.00265604 0.015381721 -0.04647623 0.10275669 -0.07022138 0.10248953 -0.12061334
0.0074989735 -0.108244374 -0.10828794 -0.015875388 -0.05898042 0.064409256 -0.07163217 0.01965868
00000000: 7aab 8b3d 02f1 8ebd 46ed c43d 68d8 ea3d
00000010: 9cf0 463d 112a ac3c 2058 ed3b ec43 52bd
00000020: 3d93 6d3c 944e 513d 4670 ad3d ac8a 81bd
00000030: f475 12bd e96b af3d 1190 d83c 5578 84bc
00000040: e252 d2bd eec5 ecbd 7b90 e0bd 30fe dabd
00000050: da18 843d ca2f acbd 808f babd 20c3 8e3d
00000060: a249 e6bd 8a2a 88bd 347a e4bd 52f9 00be
00000070: e122 f73c 684b d03d 4e88 9cbc 8ea6 81bd
00000080: f232 fbbd 9cf2 4dbd d68d a63c 0e3f d93b
00000090: a03b 1cbd 54f1 7e3d 4f52 3e3c 504e f6bc
000000a0: 058f c4bc d646 dc3d 7465 71bd f41f 323c
000000b0: 0506 843d 35e8 bb3d c8e6 893d 900a 493d
000000c0: dbc9 f0bd 0cab abbd bbf5 293d 6461 f63c
000000d0: 4cae 963d fa40 cf3d 46ce 9b3d 31c5 f63d
000000e0: 2de2 9bbd c55c 153d db70 a83c c9bf 17bd
000000f0: fc17 cbbd 7cce 5e3d 9bd3 bfbd 8ea6 9c3d
00000100: 6b99 d2bd 389b cabc 38ef ba3d 800c 233c
00000110: a0d5 b83c 605c 973d d0b8 9bbd 5cb2 3d3d
00000120: 1e19 d53d e081 6abc 1cf1 29bd b46a d03d
00000130: d4f4 96bc 942c 9fbc 3a55 e1bd b375 d93d
00000140: 14d5 a138 1f27 903d 2dd6 7c3b 6d49 e13c
00000150: 1c7f 2e3d d6b1 c5bd 444b b43d 8027 e73b
00000160: 71d7 b93b 14c2 ff3d 9660 a7bd 7ab7 9e3d
00000170: a687 01be c86d 2cbd 1d14 ffbd a3df 0fbd
00000180: 30aa c33d 3a38 fcbd 8a60 e13d a92b 2bbd
00000190: 5473 73bd 6459 e73d 8870 f5bd 6835 c0bc
000001a0: 4489 59bd 1712 ddbd af5d 37bd d486 c1bc
000001b0: 2915 4f3d 58d6 85bd 8895 793d dc04 c73d
000001c0: 3f3e a83c c9cf c43d cc0a e13c 76ba 163d
000001d0: a9d1 193d 40ae 113b 8e3c c63d 1e04 803d
000001e0: 750f 973d a8a7 283d 3d66 f83d f230 323d
000001f0: 4b0e 73bd 4fdd c7bd 1dd7 2dbd f00c f03c
00000200: ee71 a73d f283 fbbd d471 c9bd acaa 623d
00000210: 3bc6 d3bd e7f9 43bd e06c 503d f083 c03c
00000220: dd33 88bd 44e5 f73d e0c3 d9bd 52a0 29bc
00000230: 868d f63d 73f8 ac3d a023 c73c 9e4a 82bc
00000240: 0cac dd3d 8e2d 57bc 202b a2bc 415d 423d
00000250: a877 1dbd 15f5 593d f0df 8a3c 1610 c0bd
00000260: 4d04 71bd a852 21bd 7e91 d23d 6790 0d3d
00000270: f9c8 df3d 757f 3dbd 06ce 503d 8061 f43a
00000280: 4cd4 47bd 5802 0d3d 03f1 3abd 9f6e 8e3d
00000290: 90f3 0abc 1c16 d73d c098 d9bd 8057 64bc
000002a0: d90e 953d 2ca4 5eba 81d8 82bd 6d3b aa3c
000002b0: 1a9f c53d c71c 3dbc 0cac 833d 3046 fabc
000002c0: 95e9 7e3d f18f 77bc 3a93 f43c f06d 2bbd
000002d0: cbc7 98bd 5011 1abd eaea f53d 758f e5bd
000002e0: 3c3a db3d d9a8 603d 11c4 c83d e373 c83d
000002f0: 827d 993d 27bd ad3d 236c d73d d56b b1bd
00000300: 1c64 bd3d 2624 d2bd f491 173d 308d f9bd
00000310: 2b29 a0bb f89a 86bd 401a 20bc a4e1 583d
00000320: b6f1 60bd 706e db3d 6685 f4bd 21f0 91bc
00000330: eec7 a4bd 9f13 053c 41ad a53d 502f 563c
00000340: 3492 063b d822 2fbd c4e7 b23d f843 0c3b
00000350: 2ac4 d03d 000f e93a f819 edbd 00a7 56ba
00000360: 3a22 a1bd 9c1d 153d 28d1 c1bc 243b b73d
00000370: 4b96 033b 5df5 c9bd 0043 80bd 7b39 be3d
00000380: 1cea 45bd 60c8 a3bd 435e 5d3d 42f2 dcbd
00000390: 50f5 48bc 60e4 06bc fdab e7bd b87b 89bd
000003a0: d727 9e3d 1422 93bd de86 fe3d 40e3 bfbd
000003b0: a840 133d ddfd 51bb bc08 ae3d ec51 1ebd
000003c0: bacf 513c f510 2ebb 9d03 7c3c dc5d 3ebd
000003d0: 1972 d23d 3ad0 8fbd 08e6 d13d 2004 f7bd
000003e0: f3b9 f53b 3aaf ddbd 11c6 ddbd 1a0d 82bc
000003f0: 7495 71bd 00e9 833d e3b3 92bd 3d0b a13c

decoder.0.bias f4 [16]
-0.079936475 -0.07123842 -0.04250238 0.08772001 0.079986624 -0.0810505 -0.07977505 0.113298446
-0.006055783 -0.031914037 0.10287777 -0.02475102 0.037139837 -0.0558881 0.08374586 0.04103687
00000000: bcb5 a3bd 73e5 91bd fa16 2ebd 8ca6 b33d
00000010: 07d0 a33d cefd a5bd 1a61 a3bd 0409 e83d
00000020: 976f c6bb 4bb8 02bd 95b1 d23d a7c2 cabc
00000030: f11f 183d ecea 64bd f382 ab3d 4716 283d

decoder.2.weight f4 [1, 16, 1, 1]
0.13528213 -0.1542358 0.116269276 0.15843031 0.08730892 -0.23650189 -0.090688944 -0.23101039
0.19371094 0.2462216 -0.0022838453 0.1532714 -0.20581254 -0.20159538 0.14388347 0.050167173
00000000: 6687 0a3e fdef 1dbe 961e ee3d 8e3b 223e
00000010: 05cf b23d 8d2d 72be 20bb b9bd fd8d 6cbe
00000020: 295c 463e 8421 7c3e 91ac 15bb 2ef3 1c3e
00000030: 86c0 52be 056f 4ebe 3056 133e 187c 4d3d
