xbd_pipeline_output/localization_model/model_epoch7.pth (torch, 31745 bytes, 7 tensors)

encoder.0.weight f4 [16, 3, 3, 3]
0	0xbe3cb9fb	-0.18430321
1	0xbe0d6cb3	-0.13810997
2	0xbd8a9382	-0.06766416
3	0xbcf9fa0a	-0.030514736
4	0x3e055d2a	0.1302382
5	0xbe26c59f	-0.16286324
6	0x3d7e5df3	0.062101316
7	0xbda8fb1e	-0.08251022
8	0xbe127d48	-0.14305604
9	0x3ce342c5	0.0277418
10	0x3b8a8c44	0.0042281467
11	0x3c90d3b8	0.01767908
12	0xbd73055b	-0.05933128
13	0x3e1d8bc2	0.15385345
14	0x3931d5f3	0.00016959738
15	0x3d98b38f	0.07456123
16	0xbe110e2a	-0.1416556
17	0xbe1b2dbb	-0.15154164
18	0x3dfdc794	0.12391582
19	0x3de0aba2	0.10970236
20	0x3cb8fd28	0.022581652
21	0x3e1de240	0.15418339
22	0xbdf054e4	-0.117349416
23	0xbd98b980	-0.07457256
24	0xbdb0944c	-0.086220354
25	0x3d8ef102	0.06979562
26	0xbe299b8e	-0.16563246
27	0x3e326e62	0.1742492
28	0x3e41e101	0.18933488
29	0x3e3fe5df	0.18740033
30	0xbd27f3fa	-0.04100416
31	0xbe1a57af	-0.15072511
32	0x3dcc95c2	0.099895015
33	0x3caba7e1	0.020954074
34	0x3d1a01d3	0.037599396
35	0xbe3ded18	-0.18547475
36	0x3e02d9d1	0.12778403
37	0x3e2bf2d4	0.1679185
38	0x3e2e4551	0.1701863
39	0xbe37136d	-0.17878504
40	0x3ddc36de	0.107526526
41	0xbe376106	-0.17908105
42	0xbdce051c	-0.10059568
43	0xbcb492d9	-0.022042679
44	0x3e36aec9	0.17840113
45	0x3d3c1e0f	0.045927104
46	0x3d446d8c	0.047956035
47	0x3dcb4cb5	0.0992674
48	0x3e451f80	0.19250298
49	0x3e05818a	0.13037696
50	0xbe157fe2	-0.14599565
51	0xbe1c5d7c	-0.15270036
52	0x3d2b31dd	0.0417956
53	0x3e3e2e09	0.18572249
54	0xbd359921	-0.04433549
55	0xbc7c86e2	-0.015413018
56	0xbd870171	-0.06592072
57	0x3cbf92de	0.023385461
58	0x3db05408	0.08609778
59	0xbd5710b1	-0.052506153
60	0x3dc5d3ae	0.09659515
61	0xbda5b766	-0.08091621
62	0x3e1c9fe5	0.1529537
63	0x3e30c47f	0.17262457
64	0x3e0a226b	0.13489692
65	0xbe43cb33	-0.19120483
66	0x3d15074e	0.03638392
67	0xbdb77a20	-0.0895884
68	0xbd427b63	-0.047480952
69	0x3c535609	0.01289893
70	0xbc2385eb	-0.009980659
71	0xbe286953	-0.16446428
72	0xbb3821ec	-0.002809639
73	0xbde4e523	-0.11176517
74	0xbce14cb2	-0.027502391
75	0x3d6f54cc	0.058430478
76	0x3da06a6f	0.078328006
77	0x3e0bb9d2	0.13645104
78	0x3e0f7ec0	0.14013195
79	0x3a0b568a	0.00053153245
80	0xbe42f924	-0.19040352
81	0xbe1878d1	-0.14889838
82	0x3de266da	0.11054774
83	0xbdd88a87	-0.10573297
84	0x3d05d564	0.03267421
85	0xbdef1cbf	-0.11675405
86	0xbcb6c058	-0.022308514
87	0x3dc6d7a2	0.097090974
88	0xbe00e56c	-0.12587517
89	0xbe44ef04	-0.19231802
90	0xbd9e805f	-0.077393286
91	0x3dab1be6	0.083549306
92	0x3e1e9849	0.1548778
93	0xbce26610	-0.027636558
94	0xbb9bc1e0	-0.0047533363
95	0xbce884f8	-0.028383717
96	0x3d477cb4	0.04870291
97	0x3d94744e	0.07248746
98	0xbd9be5e4	-0.076122075
99	0x3cc0b5d0	0.023524195
100	0xbe092cda	-0.13396016
101	0xbd464610	-0.04840666
102	0xbc9efaa0	-0.019406617
103	0xbb8396a0	-0.0040157586
104	0x3dcfe5ce	0.10151254
105	0xbd99321b	-0.0748026
106	0x3c9d2240	0.01918137
107	0xbe19f170	-0.15033507
108	0xbdc82b60	-0.09773898
109	0x3e0a24a5	0.13490541
110	0x3e2b495f	0.16727208
111	0x3d8be26a	0.068302944
112	0xbd819dda	-0.06328936
113	0xbdb49413	-0.088173054
114	0xbd047510	-0.032338202
115	0x3e2294df	0.15877102
116	0xbdf9359a	-0.12168427
117	0xbe0e10c9	-0.1387359
118	0xbdccd6d3	-0.10001912
119	0xbc592a30	-0.013254687
120	0xbe3bc895	-0.18338235
121	0x3d7341ac	0.0593888
122	0x3e173cd5	0.147693
123	0xbe1041b3	-0.14087562
124	0xbe043dc5	-0.12914188
125	0xbe441c5d	-0.19151445
126	0x3c0906f0	0.00836347
127	0xbe3a3652	-0.18184784
128	0xbe2a146d	-0.16609354
129	0x3e0cb7d3	0.13741998
130	0xbd4e4258	-0.05035624
131	0x3e080c79	0.13286008
132	0xbda297da	-0.0793912
133	0x3b9a7460	0.00471358
134	0xbe3a6cf4	-0.18205625
135	0xbda55faa	-0.08074887
136	0xbde3f2e7	-0.11130314
137	0x3e375255	0.17902501
138	0xbda85708	-0.08219725
139	0x3dff6324	0.124700814
140	0x3c941c3e	0.018079873
141	0x3e0c1130	0.13678432
142	0xbd5d310f	-0.054001864
143	0xbe029e57	-0.12755714
144	0x3d91d8f1	0.071214564
145	0xbdc18ea8	-0.09451038
146	0xbc95383a	-0.018215287
147	0xbdb4d618	-0.08829898
148	0xbde6e2d1	-0.112737305
149	0xbe0c6c6a	-0.13713232
150	0x3e0ced65	0.13762434
151	0x3e197029	0.14984192
152	0x3e1298d3	0.1431611
153	0x3d868e25	0.06570081
154	0x3d75f6e0	0.06004989
155	0xbd866d6a	-0.06563838
156	0xbd5fac93	-0.05460794
157	0x3db92bb7	0.09041541
158	0x3dc62485	0.09674934
159	0x3daee026	0.08538847
160	0x3c7a697f	0.015283941
161	0xbe372907	-0.17886744
162	0xbe45dce7	-0.19322549
163	0x3da1dabc	0.079030484
164	0x3d8f35ae	0.069926605
165	0xbe3de6e9	-0.18545116
166	0xbcf4d40f	-0.029886274
167	0x3d84bb8b	0.064810835
168	0x3cf99718	0.030467555
169	0xbd9529b4	-0.07283345
170	0xbd76fee5	-0.06030168
171	0x3d3d49ca	0.04621295
172	0xbd4627ad	-0.04837768
173	0x3dba113e	0.0908532
174	0x3cfbf47f	0.030756233
175	0x3d290a92	0.041269846
176	0x3e226776	0.1585978
177	0x3ab4d249	0.001379558
178	0xbcd66d09	-0.026175039
179	0x3e325351	0.17414595
180	0xbda4651a	-0.08027096
181	0xbcf6bae6	-0.030118417
182	0x3c344517	0.0110028
183	0xbd0a0677	-0.03369757
184	0xbe1ed309	-0.15510191
185	0x3db8ecc4	0.090295345
186	0x3cc64a8a	0.024205465
187	0x3c83cd57	0.016089125
188	0xbe0cd77e	-0.13754079
189	0xbd929f80	-0.071593285
190	0xbe0d7263	-0.13813166
191	0xbd5047bd	-0.050849665
192	0x3b34a8c7	0.002756642
193	0xbd962121	-0.073305376
194	0x3d218c30	0.039440334
195	0xbde0ebd9	-0.10982484
196	0xbd070aa0	-0.032969117
197	0x3e193cd4	0.1496461
198	0xbc908547	-0.017641677
199	0x3cd9b29f	0.026574431
200	0x3e1d964a	0.15389362
201	0xbd3a8824	-0.04553999
202	0xbe126cdd	-0.1429934
203	0xbe05fb92	-0.13084248
204	0xbe417c81	-0.1889515
205	0xbdc0eb61	-0.09419895
206	0xbd3b56aa	-0.045736946
207	0xbd1d948f	-0.038471755
208	0x3d8116a8	0.063031495
209	0x3dd71f31	0.10503996
210	0x3cd04c28	0.02542694
211	0x3e179cc4	0.14805895
212	0xbe0f6862	-0.14004663
213	0x3e2b0cd3	0.16704111
214	0xbdcff895	-0.10154835
215	0x3d6336b0	0.055472076
216	0x3e33b2da	0.17548695
217	0x3d48b4d8	0.04900059
218	0xbdb0b4fb	-0.08628269
219	0xbdd180d3	-0.102296494
220	0x3e0f9820	0.14022875
221	0x3d5007c5	0.05078866
222	0xbe356d4f	-0.17717479
223	0xbd78bc59	-0.060726497
224	0x3d0a7e0d	0.033811618
225	0xbd2f539f	-0.042804357
226	0xbdf25fbb	-0.118346654
227	0xbe12c388	-0.14332402
228	0xbe3c11ec	-0.18366212
229	0xbe2fa6cb	-0.1715347
230	0x3d5885e4	0.052862063
231	0x3ccae21a	0.024766017
232	0x3c9a17f6	0.018810254
233	0xbe277540	-0.16353321
234	0x3e1e1c22	0.1544042
235	0x3c44fe2a	0.012023488
236	0x3da36b98	0.07979506
237	0x3e0b9921	0.13632633
238	0xbe204301	-0.1565056
239	0xbdc3de88	-0.09563929
240	0xbd79d45a	-0.06099353
241	0xbdcf6179	-0.10126013
242	0xbdc6fc2e	-0.09716068
243	0x3db3d0af	0.087800376
244	0xbe14ad44	-0.1451922
245	0xbd8eba11	-0.06969083
246	0xbe30adda	-0.17253819
247	0x3e2390f7	0.15973268
248	0x3e034533	0.12819366
249	0x3d1df5f3	0.038564634
250	0xbdc21db4	-0.09478322
251	0x3e1e42da	0.1545519
252	0x3e36a6f9	0.17837133
253	0xbd8638bf	-0.06553792
254	0xbd646449	-0.055759702
255	0x3e29ca48	0.1658107

encoder.0.bias f4 [16]
0	0x3ddc140a	0.1074601
1	0x3dc22fd6	0.0948178
2	0xbc81fdcb	-0.015868088
3	0xbe06a688	-0.13149464
4	0xbd97663c	-0.073925465
5	0x3c56f9c8	0.013121076
6	0xbd9cba78	-0.076527536
7	0xbcb57d75	-0.02215455
8	0x3d85cb90	0.06532967
9	0x3d25b592	0.040456362
10	0x3d52d311	0.05147082
11	0x3c079e48	0.008277483
12	0x3e166902	0.14688495
13	0x3e18d324	0.14924294
14	0x3d718100	0.058960915
15	0x3de46778	0.111525476

encoder.2.weight f4 [32, 16, 3, 3]
0	0xbdad89d0	-0.08473551
1	0x3d9b1e2d	0.07574115
2	0xbcef8fc9	-0.029243367
3	0xbca34218	-0.019928977
4	0xbd52d523	-0.051472794
5	0x3bc04469	0.00586753
6	0xbcaae6b9	-0.02086197
7	0xbd3f95f7	-0.046773877
8	0xbda9cba1	-0.08290792
9	0x3d763145	0.06010558
10	0x3d8603a4	0.06543663
11	0xbd2b8beb	-0.041881483
12	0x3d92bb63	0.071646474
13	0x3d3ce9ed	0.046121527
14	0x3d1b254f	0.037877377
15	0xbd38997d	-0.045068253
16	0x3d97ba49	0.07408578
17	0x3d168974	0.03675218
18	0x3cd0af96	0.02547435
19	0x3d20c853	0.039253544
20	0x3d9e50c8	0.077302516
21	0xbda888f5	-0.082292475
22	0xbd08d33d	-0.033404578
23	0x3d279852	0.04091675
24	0xbd56d82f	-0.052452262
25	0xbd8343c1	-0.064094074
26	0xbd0be339	-0.034152243
27	0x3c5f8000	0.013641357
28	0x3d69f9d2	0.057123013
29	0x3c8351b4	0.01603017
30	0x3d3cde26	0.046110295
31	0x3da654a7	0.08121615
32	0xbd36ba7e	-0.044611447
33	0xbd3f7a18	-0.046747297
34	0xbcb51a40	-0.022107244
35	0x3d91831f	0.071050875
36	0x3d0aaa02	0.03385354
37	0x3c474ef8	0.012164824
38	0xbd0e9b10	-0.034815848
39	0xbd49ebe8	-0.049297243
40	0xbc60b158	-0.013714157
41	0xbbc6dbc0	-0.0060686767
42	0xbc24d118	-0.010059617
43	0xbd2172ce	-0.039416127
44	0xbd708256	-0.058718048
45	0xbb5a9129	-0.0033350682
46	0x3d29696d	0.041360307
47	0xbd06375c	-0.03276764
48	0x3d0854e1	0.03328407
49	0xbd4a9311	-0.04945666
50	0xbb8c7491	-0.0042863567
51	0x3c0d8978	0.008638732
52	0xbd68ebc2	-0.05686546
53	0xbc50151c	-0.012700345
54	0x3d9cf7b3	0.076644324
55	0xbd541506	-0.051777862
56	0xbd8ce7e4	-0.06880167
57	0x3d76a167	0.06021252
58	0xbd85c50e	-0.06531726
59	0xbd92c5c8	-0.0716663
60	0x3cbfdd70	0.02342102
61	0xbd8ff152	-0.0702845
62	0xbbee846d	-0.00727897
63	0x3d356992	0.044290133
64	0xbc2f13de	-0.010685889
65	0x3c8ca52e	0.017168608
66	0xbdadbeb9	-0.08483643
67	0xbc8be566	-0.01707716
68	0xbd65eae9	-0.05613223
69	0xbd4d1bd6	-0.050075375
70	0x3c3a138d	0.0113572
71	0x3da3735a	0.07980986
72	0xbd5680b6	-0.052368842
73	0x3cc81e62	0.02442855
74	0xbd378c6e	-0.04481166
75	0xbc4f85a3	-0.012666139
76	0x3da0c4a7	0.078500085
77	0xbd9990ed	-0.074983455
78	0xbd7c2130	-0.061555088
79	0x3c42df2f	0.011894031
80	0x3d142627	0.036169197
81	0xbcfe0bb1	-0.031011434
82	0xbd3d4e34	-0.04621716
83	0x3d8bda58	0.06828755
84	0x3cd8d4cb	0.026468655
85	0xbcd0f423	-0.025507038
86	0x3d805f8e	0.062682256
87	0x3ca4384b	0.020046374
88	0x3b3ef808	0.0029139537
89	0xbd59c78d	-0.053168822
90	0x3d862024	0.06549099
91	0xbd661248	-0.056169778
92	0x3d9b3f86	0.075804755
93	0x3bd425e3	0.006474243
94	0xbd4ce105	-0.050019283
95	0x3d4a90a5	0.04945435
96	0xbc225f5d	-0.009910432
97	0xbd8ed3d5	-0.069739975
98	0x3d5fb6cd	0.05461769
99	0x3d5008a2	0.050789483
100	0x3d63a75a	0.05557952
101	0x3c6720a0	0.0141068995
102	0xbd5fe41e	-0.05466091
103	0x3ce6de7c	0.02818226
104	0xbbd39910	-0.0064574555
105	0xbd1b1330	-0.037860096
106	0xbd442838	-0.047889918
107	0xbcb3097c	-0.021855108
108	0xbbb69e7c	-0.005573092
109	0xbcec619b	-0.028855136
110	0x3b2b0ecd	0.0026101351
111	0xbdb63300	-0.08896446
112	0x3d371f34	0.044707492
113	0xbd434bbf	-0.04767966
114	0xbd3fb522	-0.0468036
115	0xbc921645	-0.017832885
116	0xbb411e3b	-0.0029467482
117	0x3cfaa092	0.030594144
118	0x3c88f5f0	0.016718835
119	0x3d3690da	0.044571735
120	0xbd4b1cc8	-0.049587995
121	0xbd2b9f41	-0.041899923
122	0xbd7c1802	-0.061546333
123	0xbd74404f	-0.059631642
124	0x3d69fb5c	0.05712448
125	0xbd9328d4	-0.07185522
126	0xbd9c1885	-0.07621864
127	0x3d93f601	0.07224656
128	0xbd9fc682	-0.07801534
129	0x3d029d3a	0.031888224
130	0x3d376f06	0.044783615
131	0xbdad0613	-0.08448424
132	0x3cefff24	0.029296465
133	0xbbde7ab8	-0.0067895316
134	0x3da0f9fd	0.078601815
135	0x3c93ba40	0.018033147
136	0xbc338fd6	-0.010959586
137	0x3c28df9f	0.010307222
138	0xbdaa57d3	-0.083175324
139	0x3ce63b5d	0.028104478
140	0x3cd1bdfc	0.025603287
141	0xbbdd4098	-0.006752085
142	0xbcde1166	-0.027107906
143	0xbcd912dc	-0.02649825
144	0xbd171f77	-0.03689524
145	0x3c53c798	0.012926005
146	0x3d5b4147	0.05352905
147	0x3da9b066	0.082855985
148	0x3daa75be	0.08323239
149	0x3d9c8831	0.07643164
150	0xbc8b2b37	-0.01698838
151	0x3c8a72c7	0.016900433
152	0xbd6123bd	-0.054965723
153	0xbae19981	-0.0017211885
154	0xbc13f157	-0.009029708
155	0xbd5e6382	-0.054294117
156	0x3cf727a4	0.03017027
157	0xbc02ef8b	-0.007991682
158	0xbd1fab1d	-0.038981546
159	0x3bce8706	0.006302717
160	0xbb2bcd2d	-0.0026214824
161	0x3c2f8eca	0.010715196
162	0x3d6c4817	0.057685938
163	0x3da13bf3	0.078727625
164	0x3c8ebb28	0.017423227
165	0x3da703cc	0.08155021
166	0x3c809268	0.015694812
167	0x3d6ca909	0.057778392
168	0xbd144ddc	-0.036207065
169	0x3d848e4b	0.06472453
170	0x3cba094b	0.02270951
171	0xbd926d9c	-0.071498126
172	0x3ccb2694	0.024798669
173	0x3d8a99af	0.06767594
174	0xbc9ba4b0	-0.018999428
175	0xbbbab2b0	-0.0056975707
176	0xbc9c9d9c	-0.019118123
177	0xbd0ea903	-0.03482915
178	0x3d820985	0.06349472
179	0x3d7999a6	0.060937546
180	0x3ac115c0	0.0014731213
181	0x3c8a9b84	0.016919859
182	0x3d9c6c2d	0.076378204
183	0xbda689a6	-0.08131723
184	0xbd041e76	-0.032255612
185	0xbb4d6fe0	-0.00313472
186	0x3cf19520	0.029490054
187	0xbd618650	-0.05505973
188	0x3d13b592	0.03606183
189	0x3b84cb44	0.0040525515
190	0x3d5a6b90	0.053325236
191	0x3d642516	0.05569943
192	0x3aee7cdb	0.0018195169
193	0x3d5e5c74	0.05428739
194	0x3d010fd4	0.031509236
195	0x3d30a206	0.043123268
196	0x3da5dcb9	0.0809874
197	0x3d826e49	0.063686915
198	0x3dafe384	0.08588317
199	0xbb26c11a	-0.0025444687
200	0xbd9b6a6d	-0.075886585
201	0x3c981d3a	0.018568624
202	0xbd2bb8df	-0.041924354
203	0xbd0f1d7b	-0.034940224
204	0x3b22ecf3	0.002486047
205	0x3d66c469	0.056339655
206	0xbd8f8e87	-0.07009607
207	0x3d40d0c5	0.0470741
208	0xbd550f5e	-0.05201661
209	0x3d1d9c8b	0.03847937
210	0x3d53ddff	0.051725384
211	0xbcde0b50	-0.027105004
212	0x3da501dd	0.08056996
213	0xbaa3ed47	-0.0012506627
214	0xbdaa605a	-0.08319159
215	0xbd4fdf8e	-0.050750308
216	0x3c71a1a3	0.01474801
217	0x3da65cbb	0.08123156
218	0xbda1af4a	-0.07894762
219	0xbd9e1e52	-0.07720627
220	0xbb82a2bf	-0.003986686
221	0x3d6dabf1	0.058025304
222	0xbd89b90b	-0.06724747
223	0x3d3a5db4	0.04549952
224	0xbd892579	-0.066966005
225	0x3db5d730	0.088789344
226	0xbc873101	-0.01650286
227	0xbd8fd1d2	-0.07022442
228	0x3b820184	0.003967466
229	0x3d4eb124	0.050461903
230	0x3cff0fe4	0.031135507
231	0xbd8a64eb	-0.0675753
232	0x3d61eb73	0.055156182
233	0x3d9fea9b	0.07808419
234	0x3d853d69	0.06505854
235	0x3d55c5d9	0.052190635
236	0xbd7ba1fa	-0.06143377
237	0x3d596fa9	0.053085003
238	0xbd820e67	-0.06350403
239	0x3da54411	0.08069623
240	0x3bb49497	0.0055108774
241	0x3c92d9e8	0.017926171
242	0x3d1f86c4	0.038946882
243	0x3ce894fc	0.028391354
244	0xbd592313	-0.053011965
245	0xbda17a9a	-0.078847125
246	0xbd326318	-0.043551534
247	0xbda62556	-0.0811259
248	0xbda3c56f	-0.07996642
249	0x3d0bda58	0.034143776
250	0xb9781800	-0.00023660064
251	0xbd744018	-0.059631437
252	0x3d0c6aa5	0.03428139
253	0xbbe0251d	-0.0068403617
254	0xbc9dc7d2	-0.01926032
255	0x3c904937	0.017613037

encoder.2.bias f4 [32]
0	0xbd803a46	-0.06261115
1	0xbc8ee4ea	-0.01744314
2	0xbce8ec90	-0.028433114
3	0xbd9ae591	-0.075633176
4	0xbd66c095	-0.056336004
5	0x3c2d2acb	0.010569285
6	0x3da9bf60	0.08288455
7	0xbd1a2267	-0.037630465
8	0xbd5befa3	-0.053695332
9	0xbd45da5e	-0.048303954
10	0xbd1153a0	-0.03548014
11	0xbd5dc008	-0.054138213
12	0x3d7f0ebc	0.06226991
13	0xbcbfe141	-0.02342284
14	0x3d5789b9	0.052621577
15	0xbbd24913	-0.0064174025
16	0x3d4fb38e	0.050708346
17	0xbd855c32	-0.065117255
18	0x3da7f5b6	0.082011625
19	0x3d91b055	0.07113711
20	0xbca70bf3	-0.02039144
21	0x3d5e4b4b	0.054271024
22	0xbd11fa0f	-0.035638865
23	0xbbbdeb54	-0.0057958756
24	0xbd563405	-0.052295703
25	0x3c75a8fc	0.014993902
26	0x3d8851bb	0.06656214
27	0x3d8e708c	0.0695506
28	0x3d3970b3	0.045273494
29	0x3dafbb15	0.08580605
30	0xbd600261	-0.05468977
31	0xbc8757a0	-0.016521275

decoder.0.weight f4 [32, 16, 2, 2]
0	0x3d8d6eae	0.06905876
1	0xbd8ef102	-0.06979562
2	0x3dc4ed46	0.09615569
3	0x3dead868	0.114670575
4	0x3d3be9c9	0.04587725
5	0x3c964dfd	0.018347735
6	0x3bed5820	0.0072431713
7	0xbd5243ec	-0.051334307
8	0x3c8cc54f	0.017183928
9	0x3d514e94	0.05110033
10	0x3dad7046	0.0846868
11	0xbd77ee07	-0.060529735
12	0xbd08bef7	-0.033385243
13	0x3db44726	0.08802633
14	0x3cebfb99	0.028806495
15	0xbc621d26	-0.013800895
16	0xbdcd75f5	-0.10032264
17	0xbde7e531	-0.11323012
18	0xbddbaf9b	-0.107268535
19	0xbdd61c7a	-0.1045465
20	0x3d804bce	0.062644586
21	0xbdb07e2d	-0.08617816
22	0xbdba8f80	-0.09109402
23	0x3d8ec320	0.06970811
24	0xbdeb47f4	-0.11488333
25	0xbd882a8a	-0.06648739
26	0xbde47a34	-0.11156121
27	0xbe03cccb	-0.12871091
28	0x3ce3f477	0.02782653
29	0x3dcb8837	0.0993809
30	0xbcafc803	-0.021457678
31	0xbd8674ab	-0.065652214
32	0xbdfb32f2	-0.122655764
33	0xbd4df29c	-0.0502802
34	0x3cba49ea	0.022740323
35	0x3c13693a	0.008997256
36	0xbd1c3ba0	-0.0381428
37	0x3d7ef154	0.062241867
38	0x3c6655c0	0.01405853
39	0xbcf0d21c	-0.029397063
40	0xbcd48209	-0.025940912
41	0x3dd84a3b	0.10561033
42	0xbd795e11	-0.060880724
43	0x3c123ec3	0.008926096
44	0x3d8a29df	0.067462675
45	0x3dc145c8	0.09437138
46	0x3d89e6c8	0.06733471
47	0x3d490a90	0.04908234
48	0xbdf59208	-0.11990744
49	0xbdb06fce	-0.08615075
50	0x3d205700	0.03914547
51	0x3ce325a4	0.02772791
52	0x3d942a3d	0.07234619
53	0x3dcf40fa	0.10119815
54	0x3d9bce46	0.07607703
55	0x3df4811e	0.1193869
56	0xbd970601	-0.07374192
57	0x3d1f1595	0.03883894
58	0x3cbbdf16	0.022933524
59	0xbd0e098e	-0.03467708
60	0xbdc61da1	-0.0967362
61	0x3d68a29c	0.0567957
62	0xbdbae9f8	-0.09126657
63	0x3da02db5	0.07821218
64	0xbdd1e578	-0.10248846
65	0xbcca9b38	-0.024732217
66	0x3dbaef38	0.091276586
67	0x3c230c80	0.009951711
68	0x3ca3b3d5	0.019983212
69	0x3d928f4e	0.071562394
70	0xbd9bb8d0	-0.076036096
71	0x3d3db25c	0.046312675
72	0x3dd99765	0.10624579
73	0xbc6a81e0	-0.014313191
74	0xbd29f11c	-0.041489705
75	0x3dd4ead6	0.10396354
76	0xbc84f00b	-0.016227743
77	0xbc8d2867	-0.01723118
78	0xbddcd3ff	-0.107826225
79	0x3dddf772	0.10838212
80	0x3b14b6b0	0.0022691898
81	0x3d94a66b	0.07258304
82	0x3bc66134	0.006054068
83	0x3cf32c64	0.029684253
84	0x3d233af7	0.039851155
85	0xbdc96897	-0.09834402
86	0x3db44b44	0.08803418
87	0x3be72780	0.0070542693
88	0x3b64fa27	0.0034939141
89	0x3dffc214	0.12488189
90	0xbda76096	-0.08172719
91	0x3d9a1c48	0.075249255
92	0xbe03cb61	-0.12870552
93	0xbd357a52	-0.044306107
94	0xbe01cc62	-0.12675622
95	0xbd18ec2a	-0.0373346
96	0x3dc3aa30	0.09553945
97	0xbdfc383a	-0.12315412
98	0x3de5e218	0.112247646
99	0xbd222760	-0.039588332
100	0xbd737354	-0.059436157
101	0x3de75964	0.11296347
102	0xbdf06c44	-0.117394
103	0xbcb8d72d	-0.022563541
104	0xbd6374f4	-0.055531457
105	0xbde207ba	-0.1103663
106	0xbd414936	-0.04718896
107	0xbcd55fa6	-0.026046585
108	0x3d58031f	0.05273735
109	0xbd817df4	-0.06322852
110	0x3d799588	0.06093362
111	0x3dc704dc	0.09717724
112	0x3c96215a	0.01832645
113	0x3dc0543e	0.09391068
114	0x3ccef76e	0.025264468
115	0x3d0dafbe	0.03459143
116	0x3d13b7cc	0.036063954
117	0x3b11ae40	0.0022229105
118	0x3dc63c8e	0.09679519
119	0x3d7875ce	0.060659222
120	0x3d9b9070	0.07595909
121	0x3d31a936	0.043374263
122	0x3dfce741	0.12348796
123	0x3d3b3400	0.045703888
124	0xbd6a33bd	-0.057178248
125	0xbdc360d9	-0.095399566
126	0xbd24deec	-0.040251657
127	0x3d006086	0.031342052
128	0x3da81661	0.082073934
129	0xbdfb83f2	-0.12281026
130	0xbdc971d4	-0.09836164
131	0x3d62aaac	0.055338547
132	0xbdd8bb07	-0.10582548
133	0xbd4cf249	-0.05003575
134	0x3d506ce0	0.05088508
135	0x3cc083f0	0.023500413
136	0xbd83bf37	-0.06432956
137	0x3df7e544	0.12104276
138	0xbdd9c3e0	-0.10633063
139	0xbc065bbd	-0.008200583
140	0x3dfb03e2	0.122566
141	0x3db16e56	0.08663623
142	0x3cd8fd5d	0.026488
143	0xbc60dfd7	-0.013725243
144	0x3de21e3c	0.11040923
145	0xbc339f81	-0.010963322
146	0xbc90860b	-0.017642042
147	0x3d4aef3a	0.04954455
148	0xbd28319d	-0.04106294
149	0x3d537b0a	0.05163101
150	0x3c8adff0	0.016952485
151	0xbdc01016	-0.09378068
152	0xbd76dd33	-0.060269546
153	0xbd2152a8	-0.039385468
154	0x3dd2917e	0.10281657
155	0x3d04a45b	0.032383304
156	0x3ddb45af	0.107066505
157	0xbd4699ee	-0.048486643
158	0x3d47d6e2	0.048788913
159	0xb9ae8cb3	-0.00033292695
160	0xbd47d44c	-0.048786446
161	0x3d0d0258	0.034426063
162	0xbd322277	-0.0434899
163	0x3d92e63b	0.07172819
164	0xbc0af390	-0.008480921
165	0x3dd7161c	0.10502264
166	0xbdd5074d	-0.10401783
167	0xbc5a883c	-0.013338145
168	0x3d907142	0.07052852
169	0xbb4b0f61	-0.0030984508
170	0xbd877573	-0.066141985
171	0x3c97c42d	0.018526161
172	0x3dc98c3e	0.09841202
173	0xbc1a3b22	-0.009413512
174	0x3d83ac0c	0.064293
175	0xbcfa4630	-0.030551046
176	0x3d75dae3	0.0600232
177	0xbc8d6b13	-0.017262971
178	0x3ce2a4ce	0.027666476
179	0xbd3465a0	-0.04404223
180	0xbd993cb1	-0.07482279
181	0xbd1a1150	-0.037614167
182	0x3df5eaea	0.12007697
183	0xbde8572f	-0.11344754
184	0x3ddfb014	0.10922256
185	0x3d69938d	0.05702548
186	0x3dcd39fd	0.10020826
187	0x3dccea0d	0.10005579
188	0x3d9dc9f0	0.07704532
189	0x3db22831	0.08699072
190	0x3ddbd54c	0.107340425
191	0xbdade0bf	-0.084901325
192	0x3dbd641c	0.0924761
193	0xbdd22426	-0.10260801
194	0x3d1791f4	0.037004426
195	0xbdf98d30	-0.121851325
196	0xbbca26a1	-0.0061691557
197	0xbd89b446	-0.067238376
198	0xbc201a40	-0.0097718835
199	0x3d58e1a4	0.052949563
200	0xbd5b3270	-0.053514898
201	0x3ddb6e70	0.10714424
202	0xbdf48566	-0.11939506
203	0xbc867571	-0.016413422
204	0xbda1a9fa	-0.078937486
205	0x3c1dfeba	0.009643251
206	0x3da8ca67	0.0824173
207	0x3c6f1b8d	0.014593971
208	0x3b5a051d	0.0033267208
209	0xbd29ee29	-0.041486893
210	0x3db5823d	0.088627316
211	0x3b486ae0	0.003058128
212	0x3dcd8e08	0.10036856
213	0x3ae90f00	0.001778096
214	0xbded19f8	-0.11577219
215	0xba56a700	-0.0008188337
216	0xbda1840c	-0.07886514
217	0x3d151d9c	0.03640519
218	0xbcc1d128	-0.023659304
219	0x3db48f04	0.088163406
220	0x3a110c56	0.0005533149
221	0xbdcce9d4	-0.10005537
222	0xbd839ec8	-0.064267695
223	0x3dbade85	0.091244735
224	0xbd45ea1c	-0.048318967
225	0xbda3c860	-0.07997203
226	0x3d63e06e	0.055633955
227	0xbdd9b113	-0.10629477
228	0xbc48f550	-0.012265518
229	0xbc06e460	-0.00823316
230	0xbde46953	-0.111529015
231	0xbd8917b4	-0.06693974
232	0x3d9dc741	0.0770402
233	0xbd9381f2	-0.072025195
234	0x3dfe26c6	0.12409739
235	0xbdc0441f	-0.09387993
236	0x3d148f62	0.036269553
237	0xbb2ff96c	-0.0026851548
238	0x3dae08bc	0.0849776
239	0xbd1e51ec	-0.038652346
240	0x3c3eeadc	0.0116526745
241	0xbb88745c	-0.0041642617
242	0x3c61b27e	0.013775466
243	0xbd44f220	-0.04808247
244	0x3dd04e04	0.1017113
245	0xbd8fd03a	-0.07022138
246	0x3dd1e608	0.10248953
247	0xbdf8c917	-0.1214773
248	0x3c133752	0.008985357
249	0xbddaa454	-0.10675874
250	0xbddabba5	-0.106803216
251	0xbc6bc2b3	-0.014389682
252	0xbd704af1	-0.05866522
253	0x3d85f107	0.06540113
254	0xbd9116c2	-0.07084419
255	0x3ca1bf96	0.019744676

decoder.0.bias f4 [16]
0	0xbda0658a	-0.07831867
1	0xbd981426	-0.07425718
2	0xbd220297	-0.03955325
3	0x3db9cc76	0.09072201
4	0x3da9f886	0.08299355
5	0xbdaa04d0	-0.08301699
6	0xbda9938e	-0.08280097
7	0x3de1e8df	0.11030745
8	0xbb475a68	-0.0030418877
9	0xbceea28e	-0.029130246
10	0x3dcd9c50	0.1003958
11	0xbcb6859c	-0.022280507
12	0x3d0bdfb6	0.034148894
13	0xbd69e1af	-0.057099994
14	0x3db1a92e	0.086748466
15	0x3d342910	0.043984473

decoder.2.weight f4 [1, 16, 1, 1]
0	0x3e0aa9d3	0.13541345
1	0xbe1ad9eb	-0.15122192
2	0x3df3a99c	0.11897585
3	0x3e2557f7	0.16146837
4	0x3db908b4	0.09034863
5	0xbe703015	-0.23455842
6	0xbdb3bfe4	-0.087768346
7	0xbe69a4b6	-0.22816738
8	0x3e49754c	0.19673651
9	0x3e7ec939	0.24881448
10	0x3a36cb26	0.00069730205
11	0x3e1f4578	0.15553844
12	0xbe4fb95e	-0.20285556
13	0xbe4d5545	-0.20052059
14	0x3e167300	0.14692307
15	0x3d59e5d0	0.053197682
