xbd_pipeline_output/localization_model/model_epoch1.pth (torch, 31745 bytes, 7 tensors)

encoder.0.weight f4 [16, 3, 3, 3]
00000000: ac3c 42be d9f3 12be df88 95bd 6e08 13bd
00000010: 11c0 ff3d ea35 2cbe 0053 683d d400 b4bd
00000020: bbf4 17be 473c b73c 83f4 97ba 5ffd 493c
00000030: 2885 84bd ca0f 183e e7b3 a8bb 82b0 8d3d
00000040: 4d8f 16be 58a6 20be d7bc f23d a497 d53d
00000050: d9fd 8c3c 705c 183e 4e55 fbbd 6da5 a3bd
00000060: a8a1 bbbd a5e3 833d 9019 2fbe 9e02 2f3e
00000070: 6871 3e3e 9478 3c3e 3bf8 34bd 44b7 1dbe
00000080: 5580 c53d f14b 933c 145b 0d3d 3548 41be
00000090: 9c71 fe3d b04f 283e 46a3 2a3e a392 3abe
000000a0: d806 d53d 181e 3bbe e3a9 d4bd f2e1 cfbc
000000b0: c41c 333e d75a 2e3d 779e 363d 3d69 c43d
000000c0: c5d9 413e c91d 023e b80f 19be b46c 1fbe
000000d0: 867a 1e3d a3cf 3a3e 5e2e 41bd ee59 91bc
000000e0: 9618 8bbd 6871 a93c fb72 ac3d fe79 5ebd
000000f0: 510a c03d 17a7 aabd 65b6 1a3e c0e9 2d3e
00000100: e9a7 073e e5db 45be 3d04 0a3d 4ba8 bbbd
00000110: 992d 4abd b54c 263c eedd 4bbc 6363 2abe
00000120: 4a8d bdbb 5af2 e9bd 09e4 f2bc f9ae 633d
00000130: 6947 9c3d b1b7 093e 627a 0c3e b2fe 03bb
00000140: a70a 45be d178 18be da66 e23d 878a d8bd
00000150: 64d5 053d bf1c efbd 58c0 b6bc a2d7 c63d
00000160: 6ce5 00be 04ef 44be 5f80 9ebd e61b ab3d
00000170: 4998 1e3e 1066 e2bc e0c1 9bbb f884 e8bc
00000180: b47c 473d 4e74 943d e4e5 9bbd d0b5 c03c
00000190: da2c 09be 1046 46bd a0fa 9ebc a096 83bb
000001a0: cee5 cf3d 1b32 99bd 4022 9d3c 70f1 19be
000001b0: 602b c8bd a524 0a3e 5f49 2b3e 6ae2 8b3d
000001c0: da9d 81bd 1394 b4bd 1075 04bd df94 223e
000001d0: 9a35 f9bd c910 0ebe d3d6 ccbd 302a 59bc
000001e0: 95c8 3bbe ac41 733d d53c 173e b341 10be
000001f0: c53d 04be 5d1c 44be f006 093c 5236 3abe
00000200: 6d14 2abe d3b7 0c3e 5842 4ebd 790c 083e
00000210: da97 a2bd 6074 9a3b f46c 3abe 4e71 b1bd
00000220: 8a03 f0bd 8a48 313e bf68 b4bd 3c51 f33d
00000230: edb3 473c 9c05 063e e85b 75bd 15a7 08be
00000240: 19be 853d bca8 cdbd 15a9 c5bc f5f0 c0bd
00000250: a6fd f2bd 7179 12be f3dd 063e 3861 133e
00000260: 508b 0c3e 46ec 743d dec8 5d3d 0d87 92bd
00000270: a6dc 77bd b313 ad3d bf0d ba3d 2fc3 a23d
00000280: c98d 193c e234 3dbe b070 41be 34c6 aa3d
00000290: 1c27 983d c875 39be ff1d d1bc 90b0 8d3d
000002a0: 189d 0e3d 233c 8cbd c81f 65bd be61 4f3d
000002b0: aef3 33bd cb2c c33d 5624 103d 3242 3b3d
000002c0: b9f6 263e 91bf be3b 4400 b2bc e4e0 363e
000002d0: 1f79 9bbd 6cbf d2bc b769 7c3c 1a33 f0bc
000002e0: 5752 1abe 8df5 c13d 4d3d ea3c 14d2 a73c
000002f0: d755 08be 033e 8ebd 400a 0abe 5929 3cbd
00000300: 404b 9a3b 0f1f 91bd 9dc8 353d 4baf dcbd
00000310: dc54 ffbc 1e45 1e3e 2099 77bc 1638 f63c
00000320: c0a4 223e 93dd 30bd 0f9c 0fbe d8e9 00be
00000330: 41fa 3ebe 2756 bcbd 5e25 27bd b346 14bd
00000340: 1217 883d e32a e13d 7cfd e03c e732 1a3e
00000350: 4a5b 0abe 1a38 2d3e 7916 ccbd 0a4d 773d
00000360: caa0 2f3e 3042 3b3d 9bcc b5bd 89bb d6bd
00000370: 1318 0d3e cc5d 443d a5d7 36be a08a 7ebd
00000380: a5be 033d af04 40bd ab7e f9bd 88e2 15be
00000390: 071c 3fbe 0e89 32be a047 4b3d e373 bc3c
000003a0: 825e 8b3c 0daf 29be e313 1a3e aad6 0f3c
000003b0: d85d 9e3d acf7 083e a8ad 22be 64a1 c9bd
000003c0: 4286 7fbd b864 d2bd 3a5b cabd f9cd b63d
000003d0: fad5 12be fd29 8bbd 09f5 2ebe 5f44 253e
000003e0: ebe1 043e 6357 243d 2dd9 bebd 85f9 1f3e
000003f0: 3b62 383e 0731 82bd 5a86 5cbd 8fb5 2b3e
-0.18968457 -0.14350833 -0.07301497 -0.03589671 0.12487806 -0.16817442 0.05671978 -0.087892205
-0.14839451 0.02236761 -0.0011593256 0.012328475 -0.0647071 0.14849773 -0.005148399 0.06918432
-0.14703102 -0.15688455 0.118524246 0.10429314 0.017210888 0.14879012 -0.1227213 -0.07990537
-0.09161693 0.06439904 -0.17099595 0.17090842 0.18597949 0.18405372 -0.044182044 -0.15401942
0.09643618 0.017980548 0.034510687 -0.18875201 0.12424013 0.16436648 0.16663846 -0.1822
0.10401696 -0.18273199 -0.10383966 -0.025376294 0.17491442 0.0425671 0.044584718 0.09590385
0.18930729 0.12706675 -0.14947402 -0.1556881 0.038691066 0.1824327 -0.04716336 -0.017743077
-0.06791799 0.02068396 0.08420368 -0.05431556 0.09376968 -0.08332651 0.1510864 0.169837
0.13247646 -0.19322164 0.03369545 -0.09162959 -0.04935989 0.010150124 -0.012443049 -0.16639476
-0.0057846652 -0.11423178 -0.029649751 0.05558679 0.07630808 0.13448979 0.1371856 -0.0020140824
-0.19242345 -0.14889838 0.11054774 -0.10573297 0.03267421 -0.11675405 -0.022308514 0.097090974
-0.12587517 -0.19231802 -0.077393286 0.083549306 0.1548778 -0.027636558 -0.0047533363 -0.028383717
0.04870291 0.07248746 -0.076122075 0.023524195 -0.13396016 -0.04840666 -0.019406617 -0.0040157586
0.10151254 -0.0748026 0.01918137 -0.15033507 -0.09773898 0.13490541 0.16727208 0.068302944
-0.06328936 -0.088173054 -0.032338202 0.15877102 -0.12168427 -0.1387359 -0.10001912 -0.013254687
-0.18338235 0.0593888 0.147693 -0.14087562 -0.12914188 -0.19151445 0.00836347 -0.18184784
-0.16609354 0.13741998 -0.05035624 0.13286008 -0.0793912 0.00471358 -0.18205625 -0.08664189
-0.11719425 0.17312828 -0.08809041 0.118807286 0.012188894 0.13088077 -0.0599021 -0.13344987
0.06530399 -0.10041949 -0.024128476 -0.09420959 -0.11864786 -0.14304139 0.13170604 0.14392555
0.13725019 0.05979564 0.05414664 -0.07154665 -0.06051316 0.08451023 0.09084653 0.079473846
0.009372183 -0.18477204 -0.18890643 0.083385855 0.074293345 -0.18111336 -0.025526999 0.06918442
0.034817785 -0.06847408 -0.055938512 0.050630324 -0.043933563 0.09530028 0.035190903 0.045717426
0.16305055 0.0058211763 -0.021728642 0.17859226 -0.075914614 -0.025726043 0.015406064 -0.029321242
-0.15070473 0.09470663 0.028593684 0.020485915 -0.13313995 -0.069454215 -0.13480473 -0.04593787
0.0047086775 -0.07086002 0.044380773 -0.10775622 -0.031168394 0.15456054 -0.015112191 0.03005604
0.1588316 -0.04318006 -0.14024375 -0.12589204 -0.18650152 -0.0919612 -0.04080712 -0.036200237
0.06645025 0.10994508 0.02746462 0.1505848 -0.13511387 0.16915932 -0.09965224 0.060376205
0.1715118 0.04571742 -0.08876916 -0.10484988 0.13778715 0.047941014 -0.178557 -0.06214392
0.032164235 -0.046879467 -0.12182363 -0.14637196 -0.18663035 -0.17435095 0.049628854 0.023004478
0.017012838 -0.16570683 0.15046649 0.008779207 0.07732743 0.1337573 -0.15886557 -0.09845236
-0.062383898 -0.10273117 -0.09880681 0.08926005 -0.14339438 -0.06795118 -0.17085661 0.16139363
0.12976806 0.0401224 -0.09318767 0.15622528 0.18006222 -0.063570075 -0.053839065 0.16768478

encoder.0.bias f4 [16]
00000000: 7ae3 d03d 0ab3 b93d c7c7 95bc 88a6 06be
00000010: 3c66 97bd afa4 ea3b cba4 93bd bd5a 8cbc
00000020: aaff 723d 8946 2e3d 192c 593d 03a0 013c
00000030: 3194 103e 22a7 123e 5066 673d 3747 d83d
0.10199638 0.09067352 -0.018283738 -0.13149464 -0.073925465 0.007160745 -0.07209166 -0.017133111
0.05932585 0.042547736 0.05302057 0.007911685 0.1411903 0.14321569 0.056494057 0.10560458

encoder.2.weight f4 [32, 16, 3, 3]
00000000: 0f49 a4bd ee12 a53d e168 c7bc 19b3 75bc
00000010: da3f 3ebd 342d 343c 644e 81bc 6acf 2abd
00000020: 1a4f 9fbd bc65 853d 9250 903d 37f6 16bd
00000030: ec07 9d3d 8981 513d 39bd 2f3d 3902 24bd
00000040: a206 a23d dd21 2b3d 4bfd f23c 7945 333d
00000050: 3413 a83d 8616 a0bd ef13 edbc 770e 3b3d
00000060: 9145 45bd 4a92 74bd 8cc9 f0bc 0080 5f3c
00000070: d2f9 693d b451 833c 26de 3c3d a754 a63d
00000080: 7eba 36bd 187a 3fbd 401a b5bc 1f83 913d
00000090: 02aa 0a3d f84e 473c 109b 0ebd e8eb 49bd
000000a0: 58b1 60bc c0db c6bb 18d1 24bc ce72 21bd
000000b0: 5682 70bd 12c2 073b baa2 3f3d 98dd dfbc
000000c0: 7096 1e3d 0b55 34bd d5ad 973a ccbe 663c
000000d0: 31b0 52bd d43f eebb fc3d a53d b1f9 43bd
000000e0: 08ce 84bd 7896 833d 2548 7bbd b7ac 8abd
000000f0: bbe3 e03c 2ad5 87bd 0f84 5abb f5db 433d
00000100: 51c4 28bc 146b 8e3c ec80 a6bd 0655 8abc
00000110: 93c2 64bd 5ac7 3ebd 6aa0 4e3c a011 a43d
00000120: e553 56bd 2062 c93c bc64 36bd aa95 47bc
00000130: b5e2 a13d b3bc 98bd db6f 77bd 093f 523c
00000140: 6832 173d 3221 d5bc 27d7 28bd fe15 963d
00000150: ffe1 003d 460c a8bc 569b 8a3d 021c cd3c
00000160: 4486 013c a955 45bd 7553 903d 2eb2 51bd
00000170: 4971 a53d b9af 3b3c 307e 38bd 76f7 5e3d
00000180: ef96 a1bb a4a1 84bd be17 743d a208 503d
00000190: 5aa7 633d a020 673c 1ee4 5fbd 7cde e63c
000001a0: 1099 d3bb c49b 1abd 3828 44bd 7c09 b3bc
000001b0: 5e16 a0b9 f827 c1bc a8fe 003c ef63 abbd
000001c0: c5bb 4c3d f6b0 2dbd 7013 2abd d6ac 4dbc
000001d0: 71c7 183b 2d1e 123d 6190 b23c b15d 4b3d
000001e0: a950 36bd 54d3 16bd b44b 67bd 7476 5fbd
000001f0: d5c6 7e3d bdc3 88bd c49a 9abd ed5e 983d
00000200: 0b5a 9bbd 4b30 113d 6a8a 473d 2e72 a5bd
00000210: 9f2d 003d 1824 8bbb e8c1 a63d c630 be3c
00000220: ab40 bdbb d0c1 7d3c a4bb 9fbd df56 083d
00000230: ad2c fc3c 6a39 ceba d7a2 b3bc 63aa aebc
00000240: 5798 26bd 28dd 003c f7c1 4b3d 9aa4 a13d
00000250: 2411 a03d efe1 943d 83e3 a9bc 08e3 403c
00000260: 7881 70bd 1896 d2bb 6788 60bc 752d 71bd
00000270: 7482 d03c 67b7 4fbc 3c77 32bd 6bcb cb3a
00000280: 3792 f0bb 34a4 c63b 295b 563d 4d35 953d
00000290: aab2 473c 2ffd 9b3d b0c8 203c eeaa 563d
000002a0: b18b 29bd 5125 713d d39b 8d3c 9c6d 92bd
000002b0: 9426 cb3c af99 8a3d b0a4 9bbc b0b2 babb
000002c0: 9c9d 9cbc 03a9 0ebd 8509 823d a699 793d
000002d0: c015 c13a 849b 8a3c 2d6c 9c3d a689 a6bd
000002e0: 761e 04bd e06f 4dbb 2095 f13c 5086 61bd
000002f0: 92b5 133d 10d2 f9b9 206d 473d 39ed 513d
00000300: 2027 30bb f780 4b3d 78dd dc3c c074 1e3d
00000310: fa60 9c3d 3c54 723d a077 a53d 87a8 e8bb
00000320: 019d a4bd 9326 5d3c ee47 3ebd c015 23bd
00000330: 08d9 30bb b421 523d 39c6 99bd a44b 373d
00000340: 59d4 55bd 7257 193d c260 463d 4a2a dfbc
00000350: dd01 a53d 8f33 67bb e676 aabd b0ce 50bd
00000360: a0e8 6d3c fb12 a63d 0abd a1bd e227 9ebd
00000370: 7327 99bb a175 683d e3d4 8abd 3207 353d
00000380: a560 89bd 421f ac3d dede adbc a74a 99bd
00000390: 55ba 53ba 4238 3b3d d6a1 d83c 892c 94bd
000003a0: a667 4e3d 674b 963d e821 773d 81be 423d
000003b0: 0e3c 87bd 0c08 463d e79a 8bbd d1c8 9b3d
000003c0: 301d 453a d5ae 583c 2864 0c3d fc94 e83c
000003d0: 1323 59bd 9a7a a1bd 1863 32bd 5625 a6bd
000003e0: 6fc5 a3bd 58da 0b3d 0018 78b9 1840 74bd
000003f0: 88dc f43c e760 38bc 2454 c0bc 6f12 583c
-0.08021747 0.08060251 -0.024342002 -0.0149963135 -0.046447612 0.010997105 -0.01578445 -0.04170171
-0.07778759 0.06513545 0.070466176 -0.036855903 0.076675266 0.051148925 0.042905066 -0.040041182
0.07911421 0.04178034 0.029661795 0.043767426 0.08206788 -0.07816796 -0.02894017 0.04566809
-0.048162047 -0.059709825 -0.02939298 0.013641357 0.057123013 0.01603017 0.046110295 0.08121615
-0.044611447 -0.046747297 -0.022107244 0.071050875 0.03385354 0.012164824 -0.034815848 -0.049297243
-0.013714157 -0.0060686767 -0.010059617 -0.039416127 -0.058718048 0.002071504 0.046786048 -0.027327344
0.038717687 -0.044026416 0.0011572192 0.014083575 -0.05143756 -0.0072707925 0.08068463 -0.047845546
-0.0648461 0.06425184 -0.0613481 -0.06771224 0.02745234 -0.06632455 -0.0033342873 0.04781719
-0.010300712 0.017385043 -0.08130059 -0.016886245 -0.055849623 -0.046576835 0.012611488 0.08011174
-0.0523261 0.024582922 -0.04452966 -0.012181679 0.07904569 -0.074578665 -0.060409408 0.012832412
0.036913306 -0.026016805 -0.04122081 0.073284134 0.031465527 -0.020513665 0.06767909 0.02503777
0.007905547 -0.048177395 0.07047168 -0.051195316 0.08078248 0.01145547 -0.045042217 0.054435216
-0.0049313228 -0.06476143 0.059592955 0.050789483 0.05557952 0.0141068995 -0.05466091 0.02818226
-0.0064574555 -0.037746206 -0.047889918 -0.021855108 -0.00030534243 -0.023578629 0.007873215 -0.0836867
0.04998376 -0.04240509 -0.041522443 -0.012553414 0.0023312236 0.03567331 0.02179736 0.049649898
-0.044510517 -0.036822632 -0.05646868 -0.054556325 0.06220134 -0.06677959 -0.075490505 0.07439981
-0.07585534 0.035446446 0.048715986 -0.08078419 0.031293508 -0.004246246 0.081424534 0.023216616
-0.0057755313 0.015488103 -0.077994615 0.03328597 0.030783022 -0.0015733663 -0.021928234 -0.021321481
-0.040672626 0.007865228 0.049745526 0.078927234 0.07815769 0.07269656 -0.020738369 0.0117728785
-0.05871722 -0.006426584 -0.013704396 -0.05888124 0.02545283 -0.012678004 -0.043570742 0.0015548294
-0.007341649 0.006062055 0.05233303 0.07285557 0.012188593 0.0761665 0.009813473 0.052409105
-0.041392986 0.05887348 0.017286217 -0.071498126 0.024798669 0.06767594 -0.018999428 -0.0056975707
-0.019118123 -0.03482915 0.06349472 0.060937546 0.0014731213 0.016919859 0.076378204 -0.08131723
-0.032255612 -0.00313472 0.029490054 -0.05505973 0.03606183 -0.0004764949 0.048688054 0.051251624
-0.002687879 0.049683537 0.026961073 0.03868556 0.07635684 0.059162363 0.08079457 -0.007100168
-0.080377586 0.013497966 -0.046455316 -0.039815664 -0.002698483 0.051301673 -0.07508511 0.04474987
-0.052204464 0.03743691 0.04843212 -0.027241845 0.08056996 -0.0035278534 -0.08323459 -0.050978363
0.014520794 0.08109089 -0.078973845 -0.07722451 -0.004673892 0.056752805 -0.06778886 0.044196315
-0.067078866 0.084043995 -0.021224435 -0.07484942 -0.0008076777 0.04570795 0.026444357 -0.07235057
0.050391816 0.073386006 0.06033507 0.04754496 -0.066032514 0.048347518 -0.06816655 0.07606662
0.0007519303 0.013225277 0.034275204 0.028391354 -0.053011965 -0.078847125 -0.043551534 -0.0811259
-0.07996642 0.034143776 -0.00023660064 -0.059631437 0.029890314 -0.011253572 -0.023477621 0.013187989

encoder.2.bias f4 [32]
00000000: 3bc6 6bbd 545d b5bc 2517 08bd 6d99 92bd
00000010: d6f4 7abd a119 513c 9459 9d3d e60f 2ebd
00000020: a3ef 5bbd 4891 38bd ed23 2abd 34a1 73bd
00000030: 769b 8b3d f366 ecbc b099 413d 2f9f 4bbc
00000040: efd0 663d 6e95 72bd 9948 9c3d 18d9 9c3d
00000050: c25d d8bc 4f60 723d ace3 26bd 781b b2bb
00000060: e35b 40bd 6c76 123c 9b81 783d c62c 983d
00000070: 8733 513d 3d55 a33d 4dd0 78bd a057 87bc
-0.057562094 -0.022139229 -0.033225197 -0.0715817 -0.06126865 0.012762458 0.07683101 -0.04249563
-0.053695332 -0.045060426 -0.041538168 -0.059479907 0.06816761 -0.028857684 0.04726571 -0.012428089
0.0563516 -0.05922454 0.076310344 0.07658595 -0.026411895 0.05917388 -0.04074447 -0.0054354034
-0.04696263 0.008939367 0.060670476 0.07430415 0.05107453 0.07975242 -0.060745526 -0.016521275

decoder.0.weight f4 [32, 16, 2, 2]
00000000: 8a75 8b3d 02f1 8ebd 46ed c43d 68d8 ea3d
00000010: 1925 533d c803 c43c 2058 ed3b ec43 52bd
00000020: 1091 3c3c 944e 513d 4670 ad3d 10af 87bd
00000030: 9723 1ebd 2795 a93d d335 c13c 7dd2 9bbc
00000040: da2a d8bd b09e f2bd 5869 e6bd 62d7 e0bd
00000050: d676 893d 9e74 a9bd 808f babd 20c3 8e3d
00000060: d6b6 e3bd 8a2a 88bd 347a e4bd 5fd3 fbbd
00000070: 0237 073d 631c d63d 243e 85bc 12a8 77bd
00000080: f232 fbbd 9cf2 4dbd 0bf5 8e3c 1bbb 773b
00000090: a03b 1cbd 54f1 7e3d 4218 0f3c 504e f6bc
000000a0: 5d7d aebc 2dcb e13d 3a5d 66bd c540 5e3c
000000b0: 42c4 7b3d be07 b73d c8e6 893d 900a 493d
000000c0: 8df7 eabd cddb a5bd 6a9a 353d 56d5 063d
000000d0: 1ffc 9a3d fa40 cf3d 46ce 9b3d 0e91 fa3d
000000e0: 3db9 a1bd 01ae 093d a215 913c 5b6d 23bd
000000f0: 50fe d0bd 2c16 533d 8eaf c5bd 601e 973d
00000100: 4ea0 d2bd 389b cabc 38ef ba3d 800c 233c
00000110: a060 cd3c 398c 9c3d d0b8 9bbd 5cb2 3d3d
00000120: 091f d03d e081 6abc 1cf1 29bd 1d5b cb3d
00000130: fe73 abbc 49ac b3bc 2075 e6bd a555 d43d
00000140: 80af 1ebb f50b 8b3d 7939 b33a 5d12 cd3c
00000150: d66f 393d e809 c4bd 444b b43d 8027 e73b
00000160: e045 d63b 14c2 ff3d 9660 a7bd 31c3 a33d
00000170: 63eb fdbd 351e 22bd 36f0 f9bd 8b97 05bd
00000180: 30aa c33d 3a38 fcbd 2a42 dc3d dc6d 35bd
00000190: 5473 73bd 6459 e73d 298e fabd 6835 c0bc
000001a0: a2b6 4fbd 4929 d8bd 7c8b 2dbd 35de adbc
000001b0: 46fa 463d 220d 8abd 8895 793d dc04 c73d
000001c0: 48d0 bc3c 13f8 c93d 9e99 f53c 2a02 213d
000001d0: 05de 233d 40ae 113b 8e3c c63d 232c 853d
000001e0: 3ff0 913d 3b6b 1e3d ec46 f33d fef1 273d
000001f0: 9ae0 7cbd 66f0 ccbd 1cf9 37bd 5d27 d93c
00000200: 966a a73d f283 fbbd d471 c9bd acaa 623d
00000210: 177f cebd 85de 38bd e06c 503d f083 c03c
00000220: a0a7 8dbd 44e5 f73d e0c3 d9bd 650a 54bc
00000230: 950d f13d 1179 a73d 0f24 b13c c84a 98bc
00000240: 1d42 d83d 8635 81bc ab09 b7bc c406 383d
00000250: 2ff7 11bd bc57 5a3d f0df 8a3c 1610 c0bd
00000260: ecb6 70bd a852 21bd 7e91 d23d ea7f 183d
00000270: 2d55 e53d 0a56 32bd 5be6 5b3d d3dc 953b
00000280: 4cd4 47bd 5802 0d3d c387 44bd 4fe9 883d
00000290: 90f3 0abc 1c16 d73d b20f dfbd 8057 64bc
000002a0: 6fbd 983d 4465 763a 0e56 7ebd b8f7 b83c
000002b0: 5c2f c33d 56cd 64bc 0cac 833d 3046 fabc
000002c0: 1901 853d 5992 4abc f25d 053d 5c59 20bd
000002d0: ebb7 97bd 5011 1abd eaea f53d 695f e1bd
000002e0: 36bd d53d 42b0 553d 1a47 c33d c3f6 c23d
000002f0: 268d 943d 0b7c a83d f42e d23d 9094 b6bd
00000300: 1c64 bd3d 2624 d2bd f491 173d 308d f9bd
00000310: 5d8e 3abb 231b 82bd 401a 20bc a4e1 583d
00000320: 7864 69bd 706e db3d 6685 f4bd 34d8 a2bc
00000330: 8349 a9bd 1124 c23b 9c2c a13d e31f 323c
00000340: 28fc 1639 85f0 36bd 4000 af3d b931 553a
00000350: 2387 d53d 000f e93a f819 edbd 00a7 56ba
00000360: 6c16 a1bd 9c1d 153d 28d1 c1bc 0b3f bb3d
00000370: da4f 8d3b fd52 c5bd 19f4 76bd 1803 c33d
00000380: 1cea 45bd 60c8 a3bd e80c 543d e89b e1bd
00000390: 50f5 48bc 60e4 06bc fe69 ecbd b87b 89bd
000003a0: 45ec 9e3d 2c5f 92bd 494a ff3d 2a1e bfbd
000003b0: cc5c 123d 79c3 61bb bc08 ae3d ec51 1ebd
000003c0: 5552 723c 901d 07ba 2fda 903c 05f0 34bd
000003d0: a050 d63d 3ad0 8fbd 08e6 d13d 12c0 f3bd
000003e0: 50f2 ae3b 641a e2bd 8431 e2bd a9c0 93bc
000003f0: 220f 73bd aabc 803d 4c5b 95bd 7455 9f3c
0.06809528 -0.06979562 0.09615569 0.114670575 0.05154905 0.023927584 0.0072431713 -0.051334307
0.011509195 0.05110033 0.0846868 -0.066251874 -0.03860816 0.08280402 0.023585236 -0.019021267
-0.10555048 -0.118466735 -0.112505615 -0.10978581 0.06712119 -0.08274196 -0.09109402 0.06970811
-0.111188576 -0.06648739 -0.11156121 -0.12296175 0.033011444 0.10454633 -0.016264983 -0.06046302
-0.122655764 -0.0502802 0.01745083 0.0037800733 -0.0381428 0.062241867 0.008733811 -0.03006664
-0.021300012 0.11025081 -0.05624125 0.013565247 0.061466463 0.089370236 0.06733471 0.04908234
-0.11472998 -0.08098564 0.044336714 0.032918297 0.075676195 0.10119815 0.07607703 0.12234698
-0.078966595 0.03361321 0.01771051 -0.03989921 -0.10204756 0.051534817 -0.09652625 0.073788404
-0.10284482 -0.024732217 0.091276586 0.009951711 0.025070488 0.07643933 -0.076036096 0.046312675
0.101621695 -0.014313191 -0.041489705 0.09929488 -0.020929333 -0.021932738 -0.112528086 0.10367898
-0.0024213493 0.0678939 0.0013673744 0.02503317 0.04527267 -0.09572202 0.08803418 0.0070542693
0.0065390915 0.12488189 -0.08172719 0.07996214 -0.12398412 -0.03957959 -0.1220402 -0.032615226
0.09553945 -0.12315412 0.10754807 -0.044294223 -0.059436157 0.11296347 -0.12234146 -0.023462966
-0.05071128 -0.105547495 -0.04236935 -0.02122412 0.048578523 -0.06740786 0.06093362 0.09717724
0.023048535 0.098617695 0.029980477 0.039308704 0.040006656 0.0022229105 0.09679519 0.06502559
0.071259014 0.03867648 0.11878762 0.041002266 -0.061737634 -0.1000679 -0.044915304 0.026508028
0.081746265 -0.12281026 -0.09836164 0.055338547 -0.10082834 -0.045134086 0.05088508 0.023500413
-0.069167376 0.12104276 -0.10633063 -0.012941931 0.11770169 0.081773885 0.02162364 -0.018590346
0.10559485 -0.015772592 -0.022343477 0.044928327 -0.035636123 0.053306326 0.016952485 -0.09378068
-0.058768198 -0.039385468 0.10281657 0.037231363 0.111978866 -0.043539084 0.05368648 0.0045734434
-0.048786446 0.034426063 -0.047981035 0.06685125 -0.008480921 0.10502264 -0.108916655 -0.013936877
0.074580066 0.0009399245 -0.062093787 0.022579059 0.095305175 -0.0139649715 0.064293 -0.030551046
0.0649435 -0.012363994 0.032560296 -0.03914772 -0.074081264 -0.037614167 0.12007697 -0.11004526
0.1043648 0.052170046 0.09535046 0.09519722 0.072534844 0.08226784 0.10262862 -0.08915055
0.0924761 -0.10260801 0.037004426 -0.121851325 -0.0028466203 -0.06352832 -0.0097718835 0.052949563
-0.05698058 0.10714424 -0.11939506 -0.019878484 -0.082659744 0.0059247096 0.07869837 0.01087186
0.0001439905 -0.04466297 0.085449696 0.00081327144 0.10426166 0.001778096 -0.11577219 -0.0008188337
-0.07865605 0.03640519 -0.023659304 0.09142884 0.0043124976 -0.096349694 -0.060291383 0.095220745
-0.048318967 -0.07997203 0.05177012 -0.11016065 -0.012265518 -0.00823316 -0.11543654 -0.067130506
0.077599086 -0.07147059 0.12465341 -0.09331925 0.03573303 -0.0034448786 0.0849776 -0.038652346
0.014790137 -0.00051542465 0.017682163 -0.044174213 0.10464597 -0.07022138 0.10248953 -0.11901869
0.0053389445 -0.1104019 -0.110446006 -0.018036203 -0.059340604 0.06285985 -0.07292804 0.019449927

decoder.0.bias f4 [16]
00000000: 5838 a4bd 71bf 8bbd 9de7 39bd 6281 ad3d
00000010: 36aa 9d3d 6f7b a0bd 0140 9dbd da2c ee3d
00000020: d379 14bc 9dee 0ebd 4da8 d83d 3e75 ddbc
00000030: 7967 243d da7e 5cbd b45d a53d 57d1 1b3d
-0.08018559 -0.06823624 -0.0453869 0.084719434 0.07698481 -0.07836043 -0.076782234 0.116296485
-0.009062248 -0.034895528 0.10578976 -0.027033444 0.04013774 -0.053831913 0.08074513 0.03804144

decoder.2.weight f4 [1, 16, 1, 1]
00000000: 5087 0a3e 77ff 20be 5f72 e83d 9b26 1f3e
00000010: 6aa4 ac3d 8dd7 74be bcca bfbd 5198 6fbe
00000020: 834a 433e 1b18 793e e5f8 acbb 6aa4 1a3e
00000030: b7d0 55be 9950 50be 3541 103e db2c 413d
0.1352818 -0.15722452 0.113499396 0.1554207 0.08429797 -0.23910351 -0.093648404 -0.23397948
0.19071393 0.24325602 -0.005278694 0.15101781 -0.208804 -0.20343246 0.14087375 0.047161918
