xbd_pipeline_output/localization_model/model_epoch10.pth (torch, 31755 bytes, 7 tensors)

encoder.0.weight f4 [16, 3, 3, 3]
00000000: 56ed 39be e29f 0abe fdff 84bd 4487 e3bc
00000010: fb29 083e 41ff 23be 52c6 843d e369 a3bd
00000020: c7b7 0fbe 15b9 f93c 1168 e43b 7937 a73c
00000030: bfc4 67bd 935a 203e b986 3d3b 9d4f 9e3d
00000040: ae42 0ebe ae64 18be e9b2 013e 624a e63d
00000050: a862 cf3c 09b3 203e 49b6 eabd d726 93bd
00000060: bbf7 aabd c387 943d e2d2 26be 6e5e 353e
00000070: 83d1 443e 09d6 423e 673c 1cbd 6068 17be
00000080: d678 d23d 38ff c23c 51b4 253d ddfd 3abe
00000090: e3cb 053e 3ee5 2e3e 7737 313e f322 34be
000000a0: e219 e23d bd6d 34be c728 c8bd a517 9dbc
000000b0: 23a0 393e efde 473d 1130 503d 4d2d d13d
000000c0: 960d 483e fd70 083e 358e 12be 6272 19be
000000d0: 10e5 363d 5d1d 413e b5f8 2bbd 1285 56bc
000000e0: da56 82bd 8fdb d23c 5011 b53d 98b5 4dbd
000000f0: d8a8 ca3d baf6 a0bd 10f6 1e3e 202d 333e
00000100: 9a84 0c3e 0d73 41be a5ac 1e3d cab8 b2bd
00000110: 7716 39bd 8ff9 793c 82cc fabb a910 26be
00000120: 87b8 eab9 ef1e e0bd fa89 cebc 4105 793d
00000130: 912d a53d a113 0e3e 4cec 113e 16a9 3b3b
00000140: 1da0 40be d178 18be da66 e23d 878a d8bd
00000150: 64d5 053d bf1c efbd 58c0 b6bc a2d7 c63d
00000160: 6ce5 00be 04ef 44be 5f80 9ebd e61b ab3d
00000170: 4998 1e3e 1066 e2bc e0c1 9bbb f884 e8bc
00000180: b47c 473d 4e74 943d e4e5 9bbd d0b5 c03c
00000190: da2c 09be 1046 46bd a0fa 9ebc a096 83bb
000001a0: cee5 cf3d 1b32 99bd 4022 9d3c 70f1 19be
000001b0: 602b c8bd a524 0a3e 5f49 2b3e 6ae2 8b3d
000001c0: da9d 81bd 1394 b4bd 1075 04bd df94 223e
000001d0: 9a35 f9bd c910 0ebe d3d6 ccbd 302a 59bc
000001e0: 95c8 3bbe ac41 733d d53c 173e b341 10be
000001f0: c53d 04be 5d1c 44be f006 093c 5236 3abe
00000200: 6d14 2abe d3b7 0c3e 5842 4ebd 790c 083e
00000210: da97 a2bd 6074 9a3b f46c 3abe 7f12 9fbd
00000220: c0a6 ddbd e978 3a3e 740a a2bd 27d8 023e
00000230: 094c ad3c 6938 0f3e 0995 50bd 12f0 febd
00000240: b028 983d 873f bbbd 78f2 77bc a686 aebd
00000250: 1c93 e0bd e844 09be af15 103e 5898 1c3e
00000260: 92c0 153e f8dc 8c3d 5749 813d a51e 80bd
00000270: fa0f 53bd 7b7a bf3d 3872 cc3d 0e30 b53d
00000280: fb72 963c e101 34be 6216 47be 4960 9f3d
00000290: 76c1 8c3d f123 3fbe 83d2 febc b643 823d
000002a0: e4a7 ef3c e5aa 97bd 9def 7bbd 6e38 383d
000002b0: 3045 4bbd 5d89 b73d dab6 f13c c8e4 233d
000002c0: f821 213e 0b43 0639 7cbc e0bc 990d 313e
000002d0: 51e0 a6bd 8262 00bd 0863 203c 350c 0fbd
000002e0: 2717 20be 5a6c b63d 2e38 bc3c fc4b 733c
000002f0: fa17 0ebe 9c63 93bd 6555 0ebe 2694 52bd
00000300: 967d 2c3b 3ab9 96bd b2e4 1e3d bc50 e1bd
00000310: 1016 08bd 36a0 183e 975b 94bc 4544 d23c
00000320: 87f8 1c3e b269 3bbd e5cf 12be 85a7 06be
00000330: 44c0 41be 66a8 c1bd abda 3dbd df6a 1fbd
00000340: b56b 7e3d 83f7 d53d afe8 ce3c 1d46 173e
00000350: d412 10be 20d4 2a3e 858e d0bd fdc5 603d
00000360: 2c44 363e e917 523d ae42 acbd d437 cdbd
00000370: 4bb8 113e d2f0 583d f72d 34be b091 73bd
00000380: 54e9 0f3d 17fa 24bd 1686 edbd d25e 10be
00000390: 14c7 39be cb60 2dbe 33f2 613d 411c d73c
000003a0: 10ac a63c 36c9 25be 30a9 203e 8948 6a3c
000003b0: 1fd6 a73d e6bb 0d3e 6e28 1ebe fc6e bfbd
000003c0: 9cd6 74bd 55ba ccbd 1b4d c4bd a08e b83d
000003d0: ba64 12be 7220 8abd 255d 2ebe 90e3 253e
000003e0: a49c 053e 7756 273d e271 bdbd a793 203e
000003f0: cff9 383e 18ba 81bd b158 5bbd 8110 2c3e
-0.18156943 -0.13537553 -0.064941384 -0.02777446 0.13297264 -0.1601534 0.06483139 -0.07979181
-0.14034949 0.030483762 0.0069704135 0.020412194 -0.056584116 0.15659551 0.0028919412 0.07730029
-0.13892624 -0.14882156 0.12665905 0.11244656 0.025315598 0.15693296 -0.114605494 -0.071851425
-0.08348032 0.07252457 -0.16291383 0.17711803 0.19220547 0.1902696 -0.03814354 -0.1478591
0.10276954 0.023803338 0.040455166 -0.18260904 0.13066058 0.17079636 0.17306314 -0.17591457
0.11040093 -0.17619987 -0.09773403 -0.019176314 0.18127494 0.04879659 0.05082709 0.102137186
0.19536433 0.13324352 -0.1431206 -0.1498504 0.044652045 0.18858857 -0.041985232 -0.01309325
-0.06364222 0.02573946 0.08841193 -0.05022201 0.09895486 -0.07859559 0.15523553 0.17497683
0.13722458 -0.18891545 0.038738865 -0.08726652 -0.04518744 0.015257253 -0.0076537738 -0.16217293
-0.00044769442 -0.109434 -0.025212277 0.060796026 0.08065332 0.13874675 0.14250296 0.0028634719
-0.18811078 -0.14889838 0.11054774 -0.10573297 0.03267421 -0.11675405 -0.022308514 0.097090974
-0.12587517 -0.19231802 -0.077393286 0.083549306 0.1548778 -0.027636558 -0.0047533363 -0.028383717
0.04870291 0.07248746 -0.076122075 0.023524195 -0.13396016 -0.04840666 -0.019406617 -0.0040157586
0.10151254 -0.0748026 0.01918137 -0.15033507 -0.09773898 0.13490541 0.16727208 0.068302944
-0.06328936 -0.088173054 -0.032338202 0.15877102 -0.12168427 -0.1387359 -0.10001912 -0.013254687
-0.18338235 0.0593888 0.147693 -0.14087562 -0.12914188 -0.19151445 0.00836347 -0.18184784
-0.16609354 0.13741998 -0.05035624 0.13286008 -0.0793912 0.00471358 -0.18205625 -0.077672
-0.10822821 0.18210186 -0.0791215 0.12777768 0.02115442 0.13986363 -0.05092338 -0.124481335
0.074296355 -0.09142976 -0.015133493 -0.08521776 -0.10965559 -0.13405192 0.14070772 0.1529249
0.14624241 0.06878084 0.063128166 -0.06255845 -0.05152891 0.09349533 0.09982723 0.08847056
0.018365374 -0.17578842 -0.19442132 0.07782037 0.06872837 -0.18666054 -0.03110624 0.06360571
0.029254861 -0.074056424 -0.06150781 0.04497569 -0.04962653 0.08961747 0.029506136 0.040013105
0.15735614 0.00012804211 -0.027433626 0.17290343 -0.08148254 -0.031343944 0.009789236 -0.03492375
-0.15633832 0.08907385 0.022976007 0.014849659 -0.13876334 -0.07196733 -0.13899763 -0.051410817
0.0026319972 -0.07359548 0.03879232 -0.11001727 -0.033224165 0.14904866 -0.01811008 0.02566732
0.1532918 -0.045755096 -0.14337118 -0.13149841 -0.18921 -0.094559476 -0.046351116 -0.03892028
0.062114436 0.104476 0.025257437 0.1477284 -0.14069682 0.16682482 -0.101834334 0.054876316
0.17799443 0.051292334 -0.08411156 -0.10020414 0.14230458 0.05296404 -0.17595659 -0.05946511
0.03513463 -0.040277567 -0.115978405 -0.14098671 -0.18142349 -0.16931455 0.05516262 0.02625859
0.020345718 -0.16190037 0.1568954 0.01429952 0.08195137 0.13841209 -0.1544511 -0.093473405
-0.05977498 -0.099964775 -0.09585019 0.090115786 -0.14296237 -0.0674447 -0.1702772 0.1620009
0.13048035 0.040853944 -0.09250237 0.15681325 0.18064044 -0.06334323 -0.05355138 0.1680317

encoder.0.bias f4 [16]
00000000: 79c8 e13d d91e c83d 0693 5dbc 88a6 06be
00000010: 3c66 97bd f9cd 843c 1442 9fbd ed40 bbbc
00000020: fb0e 8c3d c3a1 2e3d 378b 5c3d ad55 313c
00000030: b67b 193e e7fd 1b3e 000a 7d3d 68b6 ea3d
0.11024565 0.09771509 -0.013523823 -0.13149464 -0.073925465 0.016211497 -0.07776275 -0.022858107
0.06838795 0.042634737 0.053843703 0.010823649 0.14988598 0.15233575 0.061777115 0.114605725

encoder.2.weight f4 [32, 16, 3, 3]
00000000: 9d0d b0bd 8a4c 983d d32d fbbc 1617 afbc
00000010: 89ea 58bd 37b9 8d3b 1c04 b7bc 14a3 45bd
00000020: e8e5 acbd 757b 703d 4629 833d ea3c 31bd
00000030: 90e1 8f3d a837 373d fe73 153d 284a 3ebd
00000040: 83e1 943d c3d8 103d f60f ca3c 2cfb 1b3d
00000050: 3287 9b3d eb1a aabd 6c5f 0dbd 5021 223d
00000060: bc74 5abd cf5c 85bd 2a55 11bd 0080 5f3c
00000070: d2f9 693d b451 833c 26de 3c3d a754 a63d
00000080: 7eba 36bd 187a 3fbd 401a b5bc 1f83 913d
00000090: 02aa 0a3d f84e 473c 109b 0ebd e8eb 49bd
000000a0: 58b1 60bc c0db c6bb 18d1 24bc ce72 21bd
000000b0: 5682 70bd de79 96bb d402 243d 0ba1 0bbd
000000c0: 0dd3 023d a8e1 4fbd 30ae b8bb 9976 ef3b
000000d0: 1e30 6ebd d451 65bc 57bf 9a3d fe54 58bd
000000e0: 020d 8fbd 5733 723d bfec 87bd 8ceb 94bd
000000f0: d904 b73c a416 92bd fd67 08bc c5fd 313d
00000100: cf30 30bc 0054 8c3c 6f7a afbd c02b 8cbc
00000110: 7820 66bd e68d 50bd 7e6e 353c 3b57 a33d
00000120: fa85 56bd d431 c73c c83a 38bd 1a6b 52bc
00000130: 6433 a03d 30fa 99bd bf3d 7dbd 9420 3e3c
00000140: 744a 133d edae 04bd e4f7 42bd 4005 893d
00000150: 8182 cd3c 8a43 dcbc f615 7b3d 48ed 983c
00000160: 7544 c93a 7a6c 5fbd c34a 833d 15b9 6bbd
00000170: 626b 983d 05d2 a63b c788 52bd 01e7 443d
00000180: 8400 39bc 82a7 91bd 4c11 5a3d a208 503d
00000190: 5aa7 633d a020 673c 1ee4 5fbd 7cde e63c
000001a0: 1099 d3bb 312e 1bbd 3828 44bd 7c09 b3bc
000001b0: 0887 e8bb e7da f8bc 579a 8e3a d554 b9bd
000001c0: 12de 303d 3a8e 49bd ecf6 45bd c897 9ebc
000001d0: b1a9 92bb 8c11 ef3c 6fd1 7a3c 86ca 303d
000001e0: 30e2 50bd 1f64 31bd 6fee 80bd f802 7abd
000001f0: e137 643d 2b0a 96bd 0363 9cbd 6bb1 923d
00000200: c0cc a0bd 0965 fb3c e2c6 313d 206b afbd
00000210: f91c ec3c ab58 f5bb 2288 9f3d efcd 873c
00000220: 2d73 4bbc eef7 103c 3e52 adbd 234e da3c
00000230: 6ace c53c 0471 06bc 8cfc e9bc 38ff e4bc
00000240: 13fe 0cbd 0302 7e3c c096 653d 2acf ae3d
00000250: 37b1 af3d c9b6 a13d b0a0 6ebc 8a33 9f3c
00000260: 1dd6 56bd ca29 8d3a 743c ccbb fef0 52bd
00000270: 290d 073d 6026 aabb aa37 14bd 9a33 153c
00000280: 5fbe 3c39 686c 5d3c 9ec8 763d 02f8 a63d
00000290: 31ad a33c 513b ac3d 7f90 973c a63c 773d
000002a0: 0501 0abd 9a44 8a3d 5442 cf3c 9c6d 92bd
000002b0: 9426 cb3c af99 8a3d b0a4 9bbc b0b2 babb
000002c0: 9c9d 9cbc 03a9 0ebd 8509 823d a699 793d
000002d0: c015 c13a 849b 8a3c 2d6c 9c3d a689 a6bd
000002e0: 761e 04bd e06f 4dbb 2095 f13c 5086 61bd
000002f0: 92b5 133d dd0e de3b 5d9a 653d c533 6f3d
00000300: 6789 943b a36d 693d 953d 0c3d e7b7 3b3d
00000310: 9377 ab3d 6e05 883d d110 b53d d791 84b9
00000320: c2a2 96bd 32db ac3c 8677 22bd 3d35 05bd
00000330: 9953 a53b 7b44 703d 87ac 8abd 61b0 463d
00000340: daa6 54bd 9d20 203d 606e 5b3d c9e8 dcbc
00000350: f705 a53d c2b2 1439 05cb a9bd 89bf 4ebd
00000360: 949e 7e3c 3c82 a83d 77ad 9fbd 0ca9 9cbd
00000370: 8a57 34bb 2b4b 733d f2e1 87bd 7cbe 3f3d
00000380: 740e 87bd 6e99 bb3d 5d57 60bc 2512 8abd
00000390: 9438 de3b c836 5a3d ef0b 0b3d cea0 84bd
000003a0: 6b73 6d3d 39ad a53d dafb 8a3d 813f 613d
000003b0: 6f29 70bd 1dee 643d 6aa1 78bd 9201 ab3d
000003c0: a74d 083c bcd8 a93c 9105 2b3d b088 ec3c
000003d0: 2a8c 55bd 24af 9fbd 3e69 30bd e159 a4bd
000003e0: f9f9 a1bd 38e9 0d3d cbb4 273a 2ba9 70bd
000003f0: a238 173d 2469 89bb d623 88bc 1bec a53c
-0.085963465 0.07436474 -0.0306615 -0.021373313 -0.052958045 0.004325058 -0.022340827 -0.048251227
-0.08442289 0.058711488 0.06404357 -0.043270983 0.070254445 0.044730812 0.036487572 -0.04645744
0.072695754 0.03536297 0.024665814 0.038081333 0.07594146 -0.083059154 -0.03451483 0.03958255
-0.053333983 -0.065118425 -0.03548161 0.013641357 0.057123013 0.01603017 0.046110295 0.08121615
-0.044611447 -0.046747297 -0.022107244 0.071050875 0.03385354 0.012164824 -0.034815848 -0.049297243
-0.013714157 -0.0060686767 -0.010059617 -0.039416127 -0.058718048 -0.0045921644 0.04004176 -0.03408913
0.031939555 -0.050752312 -0.005635999 0.007307839 -0.058151357 -0.01399656 0.075560264 -0.05281543
-0.06984903 0.059130993 -0.066369526 -0.072714895 0.022341179 -0.071332246 -0.008325574 0.043454904
-0.010753824 0.017129898 -0.08568274 -0.017110705 -0.05618331 -0.050916575 0.011073707 0.07975622
-0.052373864 0.024315752 -0.044977933 -0.012842918 0.07822302 -0.075184226 -0.061826464 0.011604447
0.035959676 -0.032393385 -0.04759969 0.066904545 0.025086643 -0.026887674 0.06130024 0.018667832
0.0015355485 -0.05454681 0.06410744 -0.057549555 0.07442357 0.0050909542 -0.051399972 0.048071865
-0.011291627 -0.07112028 0.05323915 0.050789483 0.05557952 0.0141068995 -0.05466091 0.02818226
-0.0064574555 -0.03788585 -0.047889918 -0.021855108 -0.007096175 -0.030377818 0.0010879737 -0.090493836
0.043180533 -0.049207903 -0.048331186 -0.019359484 -0.004475795 0.029183172 0.015308722 0.04316189
-0.05099696 -0.043308374 -0.062954776 -0.061037987 0.055717353 -0.07326158 -0.076360725 0.07162746
-0.07851553 0.030687826 0.04340256 -0.08565354 0.028822409 -0.0074873767 0.07789637 0.016577689
-0.012417597 0.008848174 -0.08462952 0.026648587 0.024146277 -0.008205656 -0.028562807 -0.027953729
-0.03442199 0.015503409 0.05605197 0.08535607 0.08578723 0.078961916 -0.014564678 0.019433755
-0.052450288 0.00107699 -0.0062327925 -0.05149936 0.032971535 -0.005192563 -0.036185898 0.009106541
0.00017999996 0.013514616 0.060249917 0.081527725 0.019980045 0.08409751 0.018501518 0.060360573
-0.03369238 0.06751366 0.025300182 -0.071498126 0.024798669 0.06767594 -0.018999428 -0.0056975707
-0.019118123 -0.03482915 0.06349472 0.060937546 0.0014731213 0.016919859 0.076378204 -0.08131723
-0.032255612 -0.00313472 0.029490054 -0.05505973 0.03606183 0.006776674 0.056055415 0.05839898
0.004532981 0.056989323 0.034238417 0.04582968 0.08372416 0.06641661 0.08841098 -0.0002528566
-0.07355262 0.021100614 -0.039664768 -0.032521475 0.005045366 0.058659058 -0.06771188 0.04850805
-0.051916935 0.039093602 0.05357206 -0.02696647 0.08057778 0.00014180972 -0.08290676 -0.05047563
0.015540738 0.08227965 -0.07796758 -0.07649431 -0.0027517998 0.059397858 -0.066348925 0.04681252
-0.065945536 0.09160124 -0.013692704 -0.06741742 0.006781647 0.0532749 0.033946928 -0.064759836
0.0579714 0.0808968 0.06786318 0.054992203 -0.058633264 0.055891145 -0.06070081 0.08349909
0.008319295 0.02073323 0.041753355 0.028873771 -0.052135624 -0.07797077 -0.043069117 -0.080249555
-0.079090066 0.034646243 0.00063974847 -0.05875508 0.036919244 -0.004193442 -0.01661865 0.020254185

encoder.2.bias f4 [32]
00000000: 9323 83bd 4d27 70bc d71d d6bc 3162 9dbd
00000010: 27ea 5cbd 2232 2e3c b514 b03d 185d 0fbd
00000020: a3ef 5bbd fd46 49bd caa7 04bd d57b 51bd
00000030: 976c 733d c03f a7bc f047 633d b784 5abb
00000040: 027b 473d 3db5 8abd 441a ae3d 9935 8e3d
00000050: 7db7 8dbc ec3e 563d 7aff 05bd b7df bfbb
00000060: 9ddb 5cbd a2e0 933c 3098 8e3d 1ea3 8a3d
00000070: 66a1 2f3d 7b10 b63d 9160 53bd a057 87bc
-0.064032696 -0.014657808 -0.026137276 -0.07684744 -0.053934243 0.01063207 0.085976996 -0.03500089
-0.053695332 -0.049139965 -0.03238658 -0.051143486 0.05942973 -0.02041614 0.055488527 -0.0033343264
0.048701294 -0.0677285 0.085011035 0.06943817 -0.017299408 0.0523061 -0.032714345 -0.0058555263
-0.053920377 0.01805145 0.06962621 0.067693934 0.04287853 0.08889862 -0.051605765 -0.016521275

decoder.0.weight f4 [32, 16, 2, 2]
00000000: c8c9 903d 02f1 8ebd 46ed c43d 68d8 ea3d
00000010: e979 333d 162e 843c 2058 ed3b ec43 52bd
00000020: 9add 9d3c 944e 513d 4670 ad3d 7c36 6fbd
00000030: ac66 01bd e7f2 b73d e9a8 fa3c f0c9 44bc
00000040: 51cb c9bd 2533 e4bd 8cfd d7bd 8a69 d2bd
00000050: 2f1d 7b3d 12ab b5bd 808f babd 20c3 8e3d
00000060: a4f4 f0bd 8a2a 88bd 347a e4bd 1409 06be
00000070: cee7 d53c 8716 c83d 9436 bebc c400 8abd
00000080: f232 fbbd 9cf2 4dbd 713a c93c 3db1 303c
00000090: a03b 1cbd 54f1 7e3d 47c3 813c bf2b e3bc
000000a0: f255 dfbc 5595 d53d 85c7 7ebd 9d32 f93b
000000b0: f728 903d 03eb c53d c8e6 893d 900a 493d
000000c0: da0c f9bd ec00 b4bd 891a 193d 3eb0 d43c
000000d0: 4a74 923d fa40 cf3d 46ce 9b3d 5ff4 f23d
000000e0: 1659 93bd 7b6f 263d 7d8f ca3c 37b3 06bd
000000f0: 8b53 c2bd 0f1c 703d ce2d b7bd fa93 a23d
00000100: 3fe2 cebd 389b cabc 38ef ba3d 800c 233c
00000110: d2db 8c3c 6a48 8d3d d0b8 9bbd 5cb2 3d3d
00000120: acbe de3d e081 6abc 1cf1 29bd a613 da3d
00000130: fd9d 60bc 4b0e 71bc 51ab d7bd 1b21 e33d
00000140: fdae 9c3b 3fcc 993d 1162 0c3c 29e0 033d
00000150: 5017 173d d5d8 cdbd 444b b43d 8027 e73b
00000160: 820b 843a 14c2 ff3d 9660 a7bd f9e2 943d
00000170: bb72 06be fc23 40bd cc64 04be 2f74 23bd
00000180: 30aa c33d 3a38 fcbd 560b eb3d ebd2 17bd
00000190: 5473 73bd 6459 e73d bd6f ebbd 2a2f abbc
000001a0: 21f6 5fbd 2648 e0bd 62cb 3dbd 266b cebc
000001b0: 4e82 603d c6b8 78bd 8895 793d dc04 c73d
000001c0: 64a1 813c 4a2b bb3d d63e ba3c 8051 033d
000001d0: 9ca4 0f3d 40ae 113b 8e3c c63d 5cd3 703d
000001e0: 63b8 a03d 33f9 3b3d cf07 013e b086 453d
000001f0: baf8 5fbd f83e bebd ba9a 1abd e8fd 063d
00000200: bbd7 aa3d f283 fbbd d471 c9bd acaa 623d
00000210: b14c debd ad35 56bd e06c 503d f083 c03c
00000220: ee95 7ebd 44e5 f73d e0c3 d9bd 876a c5bb
00000230: bf78 ff3d 10e3 b53d 99d2 ea3c 152f 3dbc
00000240: 5e8f e63d fd09 10bc d174 7dbc 63cd 533d
00000250: 138b 33bd b8f7 4a3d f0df 8a3c 1610 c0bd
00000260: 1dbd 7fbd a852 21bd 7e91 d23d 5736 f73c
00000270: d486 d63d d018 50bd b0d8 3e3d 1b00 2bbb
00000280: 4cd4 47bd 5802 0d3d 0338 29bd cc5c 973d
00000290: 90f3 0abc 1c16 d73d 7514 d0bd 71de 3fbc
000002a0: 0627 933d d595 e8ba ccbf 84bd ae98 a23c
000002b0: bda4 cd3d 2135 edbb 0cac 833d 3046 fabc
000002c0: 4d94 6c3d 1810 9fbc 10be d03c 955a 3dbd
000002d0: 707f 99bd 5011 1abd eaea f53d 8d12 ebbd
000002e0: af24 e43d 7c7c 723d 0aaf d13d e25f d13d
000002f0: 3834 a23d ae97 b63d 0545 e03d 257a abbd
00000300: 1c64 bd3d 2624 d2bd f491 173d 308d f9bd
00000310: c5ff e4bb b5dc 8bbd 401a 20bc a4e1 583d
00000320: 1e3a 57bd 706e db3d 6685 f4bd a416 7dbc
00000330: c07b 9fbd ff6c 2f3c 90f7 aa3d 5a41 803c
00000340: a778 893b 4361 26bd 6848 b73d eb21 733b
00000350: 4969 cb3d 000f e93a f819 edbd 00a7 56ba
00000360: c0fc a1bd 9c1d 153d 28d1 c1bc d5be b23d
00000370: f409 d1b9 54db cebd 56ed 85bd a694 b83d
00000380: 1cea 45bd 60c8 a3bd 6675 683d 1967 d7bd
00000390: 50f5 48bc 60e4 06bc d32d e2bd 8c2e 88bd
000003a0: 4991 9d3d 81b7 93bd 15f1 fd3d 467a c0bd
000003b0: 8fb2 153d 6c05 0ebb bc08 ae3d ec51 1ebd
000003c0: 4eaa 323c 8b6d abbb a039 4f3c dc91 49bd
000003d0: 46f0 ce3d 3ad0 8fbd 08e6 d13d dae4 f9bd
000003e0: 9b30 243c 7e85 d8bd 989d d8bd 7dd3 5abc
000003f0: 3a36 6fbd 854a 873d 5c01 90bd ad24 a23c
0.07069737 -0.06979562 0.09615569 0.114670575 0.043817434 0.016135257 0.0072431713 -0.051334307
0.019270707 0.05110033 0.0846868 -0.05840157 -0.031592056 0.08981877 0.03059812 -0.012011036
-0.09853233 -0.111425675 -0.10546407 -0.10274036 0.06130713 -0.0887052 -0.09109402 0.06970811
-0.117654115 -0.06648739 -0.11156121 -0.130894 0.02611151 0.09769922 -0.023219384 -0.06738427
-0.122655764 -0.0502802 0.024564 0.010784444 -0.0381428 0.062241867 0.015840186 -0.02773082
-0.027262662 0.104288734 -0.062201995 0.0076049105 0.070390634 0.096639656 0.06733471 0.04908234
-0.12160654 -0.08789238 0.03737882 0.025962945 0.07151087 0.10119815 0.07607703 0.11863016
-0.07194726 0.04063366 0.024726624 -0.032885756 -0.09488591 0.05862051 -0.089442834 0.079383805
-0.10101747 -0.024732217 0.091276586 0.009951711 0.017194662 0.068985775 -0.076036096 0.046312675
0.108762115 -0.014313191 -0.041489705 0.10648279 -0.013709542 -0.01471288 -0.10530723 0.11090299
0.0047816024 0.0750966 0.008568303 0.032196198 0.036887467 -0.10051123 0.08803418 0.0070542693
0.001007423 0.12488189 -0.08172719 0.07269854 -0.13129704 -0.046909317 -0.12929076 -0.039905723
0.09553945 -0.12315412 0.114767715 -0.03706638 -0.059436157 0.11296347 -0.11495922 -0.020896513
-0.054678086 -0.10951261 -0.04633654 -0.025197577 0.05481177 -0.06072309 0.06093362 0.09717724
0.015824027 0.09139116 0.02273504 0.032060146 0.035069093 0.0022229105 0.09679519 0.058795318
0.07847669 0.04589195 0.12600635 0.04822415 -0.054680564 -0.09289354 -0.037745215 0.032956988
0.083419286 -0.12281026 -0.09836164 0.055338547 -0.108544715 -0.052297283 0.05088508 0.023500413
-0.062154703 0.12104276 -0.10633063 -0.006024662 0.12474202 0.08881199 0.028664874 -0.01154687
0.11257814 -0.008791444 -0.015469746 0.051709544 -0.043833803 0.04955265 0.016952485 -0.09378068
-0.06243621 -0.039385468 0.10281657 0.030177278 0.10474935 -0.050804913 0.046593368 -0.0026092592
-0.048786446 0.034426063 -0.041313183 0.073907465 -0.008480921 0.10502264 -0.10160152 -0.011710749
0.071851775 -0.0017744849 -0.06481895 0.019848194 0.10041187 -0.0072389995 0.064293 -0.030551046
0.05775862 -0.019416854 0.025481254 -0.046228964 -0.0749501 -0.037614167 0.12007697 -0.11478148
0.11139809 0.05920075 0.10238464 0.10223366 0.07920116 0.08915649 0.109506644 -0.083729066
0.0924761 -0.10260801 0.037004426 -0.121851325 -0.006988498 -0.06829206 -0.0097718835 0.052949563
-0.05254566 0.10714424 -0.11939506 -0.0154472925 -0.07787275 0.010707139 0.08348 0.015656162
0.004195291 -0.0406201 0.08949357 0.0037099074 0.09932191 0.001778096 -0.11577219 -0.0008188337
-0.07909536 0.03640519 -0.023659304 0.087278046 -0.00039871002 -0.10100427 -0.06539409 0.090127274
-0.048318967 -0.07997203 0.056752585 -0.10517711 -0.012265518 -0.00823316 -0.110438965 -0.06649503
0.076937266 -0.07212735 0.123994984 -0.09398322 0.03654724 -0.0021670712 0.0849776 -0.038652346
0.010904862 -0.0052315644 0.012648016 -0.049211368 0.10104422 -0.07022138 0.10248953 -0.12201853
0.010021354 -0.105723366 -0.105769336 -0.013356087 -0.058401324 0.0660601 -0.07031509 0.019792879

decoder.0.bias f4 [16]
00000000: c9a4 9cbd 405d 9ebd 2b88 15bd 1ef3 bf3d
00000010: c024 b03d c12d adbd a3e9 afbd a4dd db3d
00000020: 1391 dcb7 5e49 dabc 1fcb ca3d df22 9fbc
00000030: 8e83 ff3c 6f48 6dbd 87d0 b73d ff34 403d
-0.07648618 -0.0773263 -0.036506813 0.09372543 0.086007595 -0.084559925 -0.085894845 0.10735634
-2.62936e-05 -0.026646312 0.099020235 -0.019425808 0.03119066 -0.057930406 0.0897532 0.04692554

decoder.2.weight f4 [1, 16, 1, 1]
00000000: d7b6 0b3e feb2 17be e778 f93d 2b80 283e
00000010: ab56 bf3d 7399 6ebe 2493 adbd 830c 67be
00000020: 509e 4c3e 4a85 803e 23df 6f3b 76f3 213e
00000030: 47c8 4cbe 0a95 4cbe fa9c 193e 597e 663d
0.13643967 -0.14814374 0.121812634 0.16455142 0.093427025 -0.23300724 -0.084753305 -0.22563367
0.19982266 0.2510169 0.0036601506 0.15815529 -0.19998275 -0.19978729 0.15001288 0.05627284
